hybrid_models/best_inverse_cvae.pt (torch, 45839 bytes, 16 tensors)

encoder.0.weight f4 [64, 3]
00000000: 5ba3 06b5 9adc 42b4 39bc 73ba e7d5 95b9
00000010: 5aa0 873a a78d 823e e3ad f3b9 1d4e 483a
00000020: 5b7a 5b3e 7bb7 9639 368f 21ba 4f71 233e
00000030: 5aa3 06b5 99dc 42b4 3abc 73ba dcf0 843a
00000040: dc47 d6ba ba49 1a3e 5ca3 06b5 9cdc 42b4
00000050: 39bc 73ba 5ba3 06b5 9bdc 42b4 39bc 73ba
00000060: 2af3 74b7 83b5 4039 20c8 8a3d 59a3 06b5
00000070: 95dc 42b4 39bc 73ba 5aa3 06b5 99dc 42b4
00000080: 3abc 73ba 5ba3 06b5 98dc 42b4 39bc 73ba
00000090: 5aa3 06b5 95dc 42b4 39bc 73ba 5aa3 06b5
000000a0: 95dc 42b4 39bc 73ba 5aa3 06b5 9adc 42b4
000000b0: 39bc 73ba 5ca3 06b5 9adc 42b4 3abc 73ba
000000c0: 2352 94b9 d88a 6ab8 711b 853e d34c 1aba
000000d0: 3fb1 f5b9 822b 713e 5ba3 06b5 9bdc 42b4
000000e0: 39bc 73ba 59a3 06b5 95dc 42b4 39bc 73ba
000000f0: 4f72 f4b9 abb8 243a 2968 7c3d 5ca3 06b5
00000100: 9adc 42b4 3abc 73ba 5ba3 06b5 99dc 42b4
00000110: 39bc 73ba 5ba3 06b5 9adc 42b4 3abc 73ba
00000120: 0dd2 ac39 6b50 623a 412e 2e3e 5aa3 06b5
00000130: 9adc 42b4 3abc 73ba 3f25 d038 23a7 04b9
00000140: 0917 db3b fbc0 94b7 6ff9 4fba ffab c13d
00000150: 5ca3 06b5 99dc 42b4 3abc 73ba 5aa3 06b5
00000160: 99dc 42b4 39bc 73ba 5ca3 06b5 9adc 42b4
00000170: 3abc 73ba 59a3 06b5 95dc 42b4 39bc 73ba
00000180: 5aa3 06b5 99dc 42b4 39bc 73ba 5ba3 06b5
00000190: 99dc 42b4 3abc 73ba 5ba3 06b5 99dc 42b4
000001a0: 3abc 73ba bf41 4a39 6262 593a 95b9 863e
000001b0: 344c 48b9 ee35 c4b8 1942 783e 5ba3 06b5
000001c0: 98dc 42b4 39bc 73ba 000f 033a f123 17ba
000001d0: 3e42 2e3e 5aa3 06b5 9adc 42b4 3abc 73ba
000001e0: 5ca3 06b5 99dc 42b4 3abc 73ba 5264 8438
000001f0: ec2c d1b9 f251 e53d 5aa3 06b5 9adc 42b4
00000200: 3abc 73ba 5ca3 06b5 9cdc 42b4 39bc 73ba
00000210: 59a3 06b5 94dc 42b4 39bc 73ba 05db 0939
00000220: 9a9d 0cba deed 2e3d 5ba3 06b5 99dc 42b4
00000230: 39bc 73ba 5d85 d1b8 9a56 d239 02a5 093d
00000240: 4400 c3b8 16d3 9dba 1a8a 2a3e 4f4a f8b9
00000250: a089 3d3a bd61 5a3e 5ba3 06b5 98dc 42b4
00000260: 39bc 73ba c717 75b8 6114 05b9 51fb 683e
00000270: d502 4139 2493 3dba 4640 863e 5aa3 06b5
00000280: 9bdc 42b4 39bc 73ba f59b b639 4b46 12ba
00000290: 7da5 3a3e 5ba3 06b5 9cdc 42b4 39bc 73ba
000002a0: cec8 6eb9 d6c9 303a 2e0f 853d 5aa3 06b5
000002b0: 94dc 42b4 39bc 73ba 5ba3 06b5 99dc 42b4
000002c0: 3abc 73ba 5ba3 06b5 9adc 42b4 3abc 73ba
000002d0: 4386 4bb7 437e 8539 c093 7f3e 59a3 06b5
000002e0: 99dc 42b4 39bc 73ba 5ba3 06b5 9adc 42b4
000002f0: 3abc 73ba 5aa3 06b5 98dc 42b4 3abc 73ba
-5.0156603e-07 -1.8147912e-07 -0.0009297762 -0.00028578864 0.0010347471 0.25498697 -0.00046478127 0.00076410343
0.21433394 0.00028746933 -0.00061630027 0.15961193 -5.01566e-07 -1.8147911e-07 -0.00092977623 0.0010142582
-0.001634832 0.15067187 -5.015661e-07 -1.8147915e-07 -0.0009297762 -5.0156603e-07 -1.8147914e-07 -0.0009297762
-1.4600149e-05 0.00018378165 0.06776452 -5.015659e-07 -1.8147905e-07 -0.0009297762 -5.01566e-07 -1.8147911e-07
-0.00092977623 -5.0156603e-07 -1.814791e-07 -0.0009297762 -5.01566e-07 -1.8147905e-07 -0.0009297762 -5.01566e-07
-1.8147905e-07 -0.0009297762 -5.01566e-07 -1.8147912e-07 -0.0009297762 -5.015661e-07 -1.8147912e-07 -0.00092977623
-0.00028289956 -5.5919256e-05 0.259975 -0.00058860815 -0.000468621 0.23551753 -5.0156603e-07 -1.8147914e-07
-0.0009297762 -5.015659e-07 -1.8147905e-07 -0.0009297762 -0.00046624473 0.0006283621 0.061622772 -5.015661e-07
-1.8147912e-07 -0.00092977623 -5.0156603e-07 -1.8147911e-07 -0.0009297762 -5.0156603e-07 -1.8147912e-07 -0.00092977623
0.00032962897 0.0008633199 0.17009832 -5.01566e-07 -1.8147912e-07 -0.00092977623 9.9251505e-05 -0.00012650764
0.0066860956 -1.7732838e-05 -0.0007933592 0.09456634 -5.015661e-07 -1.8147911e-07 -0.00092977623 -5.01566e-07
-1.8147911e-07 -0.0009297762 -5.015661e-07 -1.8147912e-07 -0.00092977623 -5.015659e-07 -1.8147905e-07 -0.0009297762
-5.01566e-07 -1.8147911e-07 -0.0009297762 -5.0156603e-07 -1.8147911e-07 -0.00092977623 -5.0156603e-07 -1.8147911e-07
-0.00092977623 0.00019288714 0.0008292553 0.26313463 -0.00019101874 -9.3560535e-05 0.24243964 -5.0156603e-07
-1.814791e-07 -0.0009297762 0.00049994886 -0.00057655486 0.17017457 -5.01566e-07 -1.8147912e-07 -0.00092977623
-5.015661e-07 -1.8147911e-07 -0.00092977623 6.3129366e-05 -0.00039897056 0.111972705 -5.01566e-07 -1.8147912e-07
-0.00092977623 -5.015661e-07 -1.8147915e-07 -0.0009297762 -5.015659e-07 -1.8147904e-07 -0.0009297762 0.00013146929
-0.00053640606 0.042707317 -5.0156603e-07 -1.8147911e-07 -0.0009297762 -9.9907375e-05 0.00040118844 0.03360463
-9.298374e-05 -0.0012041058 0.16654244 -0.0004735761 0.00072302856 0.21326347 -5.0156603e-07 -1.814791e-07
-0.0009297762 -5.8434696e-05 -0.0001269146 0.2275212 0.0001840697 -0.00072317035 0.26220912 -5.01566e-07
-1.8147914e-07 -0.0009297762 0.00034829942 -0.00055799325 0.18227191 -5.0156603e-07 -1.8147915e-07 -0.0009297762
-0.00022772254 0.0006743943 0.06497036 -5.01566e-07 -1.8147904e-07 -0.0009297762 -5.0156603e-07 -1.8147911e-07
-0.00092977623 -5.0156603e-07 -1.8147912e-07 -0.00092977623 -1.2131003e-05 0.0002546181 0.24958706 -5.015659e-07
-1.8147911e-07 -0.0009297762 -5.0156603e-07 -1.8147912e-07 -0.00092977623 -5.01566e-07 -1.814791e-07 -0.00092977623

encoder.0.bias f4 [64]
00000000: 6b9f 33b5 7480 2839 26bb 5ab8 b3e6 89b8
00000010: 6c9f 33b5 4dd5 feb7 6d9f 33b5 6c9f 33b5
00000020: 8b3e 5b38 6a9f 33b5 6d9f 33b5 6e9f 33b5
00000030: 6b9f 33b5 699f 33b5 6c9f 33b5 6c9f 33b5
00000040: 5f2c 67b9 8808 55b9 6c9f 33b5 6a9f 33b5
00000050: 9928 3fb8 6c9f 33b5 6b9f 33b5 6b9f 33b5
00000060: 025f 4c39 6e9f 33b5 6fd9 a5b7 477c 64b9
00000070: 6c9f 33b5 6d9f 33b5 6e9f 33b5 6b9f 33b5
00000080: 6c9f 33b5 6c9f 33b5 6c9f 33b5 ea2c 1c39
00000090: 273d efb8 6b9f 33b5 07e5 b438 6d9f 33b5
000000a0: 6b9f 33b5 64ca 00b9 6d9f 33b5 6d9f 33b5
000000b0: 6b9f 33b5 57f8 15b9 6b9f 33b5 0f6c 9f38
000000c0: 0013 adb9 d61c abb7 6e9f 33b5 569e deb8
000000d0: 4142 07b9 6d9f 33b5 47ed a6b7 6e9f 33b5
000000e0: 05ed 9338 689f 33b5 6c9f 33b5 6e9f 33b5
000000f0: 99c3 db37 6d9f 33b5 6b9f 33b5 6b9f 33b5
-6.691468e-07 0.00016069581 -5.2149546e-05 -6.57564e-05 -6.6914686e-07 -3.0378485e-05 -6.691469e-07 -6.6914686e-07
5.2271917e-05 -6.6914674e-07 -6.691469e-07 -6.6914697e-07 -6.691468e-07 -6.691467e-07 -6.6914686e-07 -6.6914686e-07
-0.00022046406 -0.00020316441 -6.6914686e-07 -6.6914674e-07 -4.5575758e-05 -6.6914686e-07 -6.691468e-07 -6.691468e-07
0.00019490349 -6.6914697e-07 -1.9770783e-05 -0.00021790071 -6.6914686e-07 -6.691469e-07 -6.6914697e-07 -6.691468e-07
-6.6914686e-07 -6.6914686e-07 -6.6914686e-07 0.00014894051 -0.000114077986 -6.691468e-07 8.6257285e-05 -6.691469e-07
-6.691468e-07 -0.00012282428 -6.691469e-07 -6.691469e-07 -6.691468e-07 -0.00014302261 -6.691468e-07 7.601838e-05
-0.00033011287 -2.0398216e-05 -6.6914697e-07 -0.00010615277 -0.00012899285 -6.691469e-07 -1.9899233e-05 -6.6914697e-07
7.0536546e-05 -6.6914663e-07 -6.6914686e-07 -6.6914697e-07 2.6197917e-05 -6.691469e-07 -6.691468e-07 -6.691468e-07

encoder.2.weight f4 [64, 64]
00000000: d5a1 6fb7 f4a7 f2bd dce9 05be bb26 2fbe
00000010: c4a1 6fb7 2ad4 253e eaa1 6fb7 f0a1 6fb7
00000020: 5510 603c b8a1 6fb7 daa1 6fb7 d6a1 6fb7
00000030: b8a1 6fb7 baa1 6fb7 cfa1 6fb7 eaa1 6fb7
00000040: 878d 14be d20e 1c3c f6a1 6fb7 b8a1 6fb7
00000050: 7478 113d c8a1 6fb7 eaa1 6fb7 e2a1 6fb7
00000060: 8287 f9bd daa1 6fb7 61c1 43bd fe4c 04bb
00000070: d2a1 6fb7 cea1 6fb7 e2a1 6fb7 b3a1 6fb7
00000080: dea1 6fb7 e2a1 6fb7 e2a1 6fb7 40d8 4a3e
00000090: ac0a 79bd b8a1 6fb7 940f 403e eaa1 6fb7
000000a0: e2a1 6fb7 0a68 443e eaa1 6fb7 eaa1 6fb7
000000b0: b2a1 6fb7 8533 e3bd eaa1 6fb7 8b31 a2bd
000000c0: 63ce 413e ce22 2abe d6a1 6fb7 c87b 423e
000000d0: b775 f73d eea1 6fb7 4db2 f03d e6a1 6fb7
000000e0: ac28 e53d c2a1 6fb7 e2a1 6fb7 d8a1 6fb7
000000f0: 3eb6 ed3d c4a1 6fb7 e2a1 6fb7 aea1 6fb7
00000100: fa7d aa33 411f bfb9 8ed0 a2b9 1c32 79b9
00000110: fa7d aa33 adaa 6cb9 f87d aa33 f87d aa33
00000120: 5041 ebb8 fa7d aa33 fa7d aa33 f97d aa33
00000130: fa7d aa33 fa7d aa33 f97d aa33 fa7d aa33
00000140: 0795 c2b9 e595 b1b9 f87d aa33 fa7d aa33
00000150: 1852 d8b8 fa7d aa33 fa7d aa33 fa7d aa33
00000160: 56f1 83b9 fa7d aa33 044d 4fb7 a42e 1db9
00000170: fa7d aa33 f97d aa33 fa7d aa33 fa7d aa33
00000180: f97d aa33 fa7d aa33 fa7d aa33 87c7 c4b9
00000190: fa66 b6b9 fa7d aa33 23fa 83b9 fa7d aa33
000001a0: fa7d aa33 8f16 36b9 fa7d aa33 f87d aa33
000001b0: fa7d aa33 a91a 9cb8 fa7d aa33 e85d 7ab8
000001c0: 5c74 81b9 2013 a2b9 f97d aa33 4505 acb9
000001d0: c521 c4b9 f87d aa33 a272 8cb9 f87d aa33
000001e0: a9ab e2b8 fa7d aa33 fa7d aa33 fa7d aa33
000001f0: f45d bbb9 f97d aa33 fa7d aa33 fb7d aa33
00000200: fe7d aa33 401f bfb9 8fd0 a2b9 1b32 79b9
00000210: fe7d aa33 adaa 6cb9 fc7d aa33 fc7d aa33
00000220: 5441 ebb8 fd7d aa33 fe7d aa33 fe7d aa33
00000230: fd7d aa33 fc7d aa33 fe7d aa33 fe7d aa33
00000240: 0695 c2b9 e495 b1b9 fc7d aa33 fd7d aa33
00000250: 1d52 d8b8 fe7d aa33 fe7d aa33 fe7d aa33
00000260: 56f1 83b9 fe7d aa33 074d 4fb7 a62e 1db9
00000270: fe7d aa33 fe7d aa33 fe7d aa33 fd7d aa33
00000280: fe7d aa33 fe7d aa33 fe7d aa33 86c7 c4b9
00000290: fe66 b6b9 fe7d aa33 23fa 83b9 fe7d aa33
000002a0: fe7d aa33 8e16 36b9 fe7d aa33 fc7d aa33
000002b0: fd7d aa33 a91a 9cb8 fe7d aa33 ee5d 7ab8
000002c0: 5f74 81b9 1e13 a2b9 fe7d aa33 4505 acb9
000002d0: c421 c4b9 fc7d aa33 a172 8cb9 fc7d aa33
000002e0: abab e2b8 fd7d aa33 fe7d aa33 fe7d aa33
000002f0: f55d bbb9 fe7d aa33 fe7d aa33 fd7d aa33
00000300: 7b5a deb7 9cb9 2fbd df29 27be cbca 37be
00000310: 7e5a deb7 39ad 28bb 6e5a deb7 715a deb7
00000320: 86b3 193e 6b5a deb7 845a deb7 7f5a deb7
00000330: 6b5a deb7 685a deb7 705a deb7 7c5a deb7
00000340: 436c 2ebe 547a 9d3d 6e5a deb7 6b5a deb7
00000350: 34f4 fdbc 745a deb7 7b5a deb7 785a deb7
00000360: fd1c 0cbe 785a deb7 18eb 97bd af86 c73d
00000370: 705a deb7 785a deb7 7e5a deb7 6b5a deb7
00000380: 785a deb7 7c5a deb7 7c5a deb7 6d18 9dbd
00000390: e763 e83d 7b5a deb7 d0de 333e 7c5a deb7
000003a0: 7c5a deb7 3f57 bc3d 7c5a deb7 6e5a deb7
000003b0: 695a deb7 8a77 06be 7b5a deb7 b304 0c3e
000003c0: 5ada f63d eeb1 c83d 7f5a deb7 4d2e 98bc
000003d0: bbb5 3f3e 6a5a deb7 c879 f63d 735a deb7
000003e0: 13dd a93c 6b5a deb7 805a deb7 805a deb7
000003f0: 8e7f 8fbd 6e5a deb7 785a deb7 7c5a deb7
-1.428319e-05 -0.11848441 -0.13077492 -0.17104618 -1.4283174e-05 0.16194215 -1.4283209e-05 -1.4283214e-05
0.013675769 -1.4283163e-05 -1.4283194e-05 -1.42831905e-05 -1.4283163e-05 -1.4283165e-05 -1.4283184e-05 -1.4283209e-05
-0.14507113 0.009525018 -1.428322e-05 -1.4283163e-05 0.035515264 -1.4283178e-05 -1.4283209e-05 -1.4283201e-05
-0.12184049 -1.4283194e-05 -0.047791842 -0.0020187492 -1.4283187e-05 -1.4283183e-05 -1.4283201e-05 -1.4283159e-05
-1.4283198e-05 -1.4283201e-05 -1.4283201e-05 0.19809055 -0.060801193 -1.4283163e-05 0.18755943 -1.4283209e-05
-1.4283201e-05 0.19180313 -1.4283209e-05 -1.4283209e-05 -1.4283158e-05 -0.11093811 -1.4283209e-05 -0.07919606
0.18926387 -0.1661484 -1.42831905e-05 0.18992531 0.12082999 -1.4283212e-05 0.11752758 -1.4283205e-05
0.11189398 -1.4283172e-05 -1.4283201e-05 -1.4283192e-05 0.116070256 -1.4283174e-05 -1.4283201e-05 -1.4283154e-05
7.939157e-08 -0.00036453645 -0.00031054433 -0.00023765158 7.939157e-08 -0.00022570296 7.9391555e-08 7.9391555e-08
-0.000112178386 7.939157e-08 7.939157e-08 7.939156e-08 7.939157e-08 7.939157e-08 7.939156e-08 7.939157e-08
-0.00037113598 -0.0003387175 7.9391555e-08 7.939157e-08 -0.00010314974 7.939157e-08 7.939157e-08 7.939157e-08
-0.00025166076 7.939157e-08 -1.2356093e-05 -0.00014990062 7.939157e-08 7.939156e-08 7.939157e-08 7.939157e-08
7.939156e-08 7.939157e-08 7.939157e-08 -0.00037532693 -0.0003479047 7.939157e-08 -0.00025172633 7.939157e-08
7.939157e-08 -0.00017365276 7.939157e-08 7.9391555e-08 7.939157e-08 -7.4436255e-05 7.939157e-08 -5.96921e-05
-0.00024691492 -0.00030913297 7.939156e-08 -0.00032810323 -0.00037409193 7.9391555e-08 -0.0002678829 7.9391555e-08
-0.00010808494 7.939157e-08 7.939157e-08 7.939157e-08 -0.0003573742 7.939156e-08 7.939157e-08 7.9391576e-08
7.93916e-08 -0.00036453642 -0.00031054436 -0.00023765156 7.93916e-08 -0.00022570296 7.939158e-08 7.939158e-08
-0.000112178415 7.939159e-08 7.93916e-08 7.93916e-08 7.939159e-08 7.939158e-08 7.93916e-08 7.93916e-08
-0.00037113595 -0.00033871748 7.939158e-08 7.939159e-08 -0.000103149774 7.93916e-08 7.93916e-08 7.93916e-08
-0.00025166076 7.93916e-08 -1.2356096e-05 -0.00014990065 7.93916e-08 7.93916e-08 7.93916e-08 7.939159e-08
7.93916e-08 7.93916e-08 7.93916e-08 -0.0003753269 -0.0003479048 7.93916e-08 -0.00025172633 7.93916e-08
7.93916e-08 -0.00017365275 7.93916e-08 7.939158e-08 7.939159e-08 -7.4436255e-05 7.93916e-08 -5.9692124e-05
-0.000246915 -0.0003091329 7.93916e-08 -0.00032810323 -0.0003740919 7.939158e-08 -0.00026788286 7.939158e-08
-0.000108084954 7.939159e-08 7.93916e-08 7.93916e-08 -0.00035737423 7.93916e-08 7.93916e-08 7.939159e-08
-2.6506596e-05 -0.04290162 -0.16324566 -0.17948453 -2.6506601e-05 -0.0025738014 -2.6506572e-05 -2.6506577e-05
0.15009889 -2.6506566e-05 -2.6506612e-05 -2.6506603e-05 -2.6506566e-05 -2.6506561e-05 -2.6506576e-05 -2.6506597e-05
-0.17033486 0.07689348 -2.6506572e-05 -2.6506566e-05 -0.031000234 -2.6506583e-05 -2.6506596e-05 -2.650659e-05
-0.13682933 -2.650659e-05 -0.074178874 0.09742486 -2.6506576e-05 -2.650659e-05 -2.6506601e-05 -2.6506566e-05
-2.650659e-05 -2.6506597e-05 -2.6506597e-05 -0.076706745 0.1134718 -2.6506596e-05 0.17565465 -2.6506597e-05
-2.6506597e-05 0.09196328 -2.6506597e-05 -2.6506572e-05 -2.6506563e-05 -0.13131538 -2.6506596e-05 0.13673668
0.12053366 0.097995624 -2.6506603e-05 -0.018576765 0.18721668 -2.6506565e-05 0.12034947 -2.6506581e-05
0.0207353 -2.6506566e-05 -2.6506605e-05 -2.6506605e-05 -0.07006751 -2.6506572e-05 -2.650659e-05 -2.6506597e-05

encoder.2.bias f4 [64]
00000000: aec6 aa39 3f53 7db5 4053 7db5 4a98 48b9
00000010: 2b99 87b9 4f50 6338 160f 9836 4053 7db5
00000020: 5ed7 e137 4053 7db5 4753 7db5 3e53 7db5
00000030: 7eb0 19b9 4453 7db5 cd57 2fb9 df54 69b9
00000040: 5c92 a438 2369 ae39 3c53 7db5 4053 7db5
00000050: 4153 7db5 3f53 7db5 4353 7db5 3953 7db5
00000060: 3e53 7db5 4053 7db5 9ee1 84b7 4053 7db5
00000070: 3d53 7db5 4253 7db5 4153 7db5 fa98 e6b9
00000080: 1eda 7db5 3e53 7db5 4453 7db5 4453 7db5
00000090: 0187 1eb9 ecac a8b8 4453 7db5 2fd6 8f39
000000a0: 4253 7db5 1dc4 f8b8 4053 7db5 3d53 7db5
000000b0: 4353 7db5 4253 7db5 4453 7db5 4353 7db5
000000c0: 0b9f c6b9 4053 7db5 0e73 46b7 1cda 2039
000000d0: ed18 06b8 4553 7db5 4253 7db5 3e53 7db5
000000e0: 4253 7db5 4053 7db5 4253 7db5 3f53 7db5
000000f0: 4753 7db5 3b53 7db5 4153 7db5 b7d5 a2b9
0.00032572955 -9.4370984e-07 -9.437099e-07 -0.00019130218 -0.00025863326 5.419581e-05 4.5317092e-06 -9.437099e-07
2.6922378e-05 -9.437099e-07 -9.437103e-07 -9.437098e-07 -0.00014656966 -9.437101e-07 -0.00016722009 -0.00022252229
7.847391e-05 0.000332662 -9.4370967e-07 -9.437099e-07 -9.4370995e-07 -9.4370984e-07 -9.4371006e-07 -9.437095e-07
-9.437098e-07 -9.437099e-07 -1.5840687e-05 -9.437099e-07 -9.437097e-07 -9.4371e-07 -9.4370995e-07 -0.00043982995
-9.4567247e-07 -9.437098e-07 -9.437101e-07 -9.437101e-07 -0.00015118347 -8.0430735e-05 -9.437101e-07 0.00027434665
-9.4371e-07 -0.000118620905 -9.437099e-07 -9.437097e-07 -9.4371006e-07 -9.4371e-07 -9.437101e-07 -9.4371006e-07
-0.00037884 -9.437099e-07 -1.1828508e-05 0.00015340041 -3.1971304e-05 -9.437102e-07 -9.4371e-07 -9.437098e-07
-9.4371e-07 -9.437099e-07 -9.4371e-07 -9.4370984e-07 -9.437103e-07 -9.437096e-07 -9.4370995e-07 -0.00031058278

encoder.4.weight f4 [32, 64]
00000000: ef5d 943a c7e2 9c37 cbe2 9c37 cffc b339
00000010: a957 1f39 a5b9 d7ba 1227 f9ba c9e2 9c37
00000020: 038e 23ba c7e2 9c37 c5e2 9c37 c9e2 9c37
00000030: 6012 173b cbe2 9c37 a45b 873a fed7 333b
00000040: c29d daba 6ff1 97ba cde2 9c37 c8e2 9c37
00000050: cae2 9c37 c7e2 9c37 c8e2 9c37 c7e2 9c37
00000060: c5e2 9c37 cde2 9c37 d810 cf3a cbe2 9c37
00000070: cae2 9c37 c8e2 9c37 c8e2 9c37 e9db 933a
00000080: 7aa2 9b37 cce2 9c37 c8e2 9c37 c6e2 9c37
00000090: eb5c 0bbb 5cd6 9dba c8e2 9c37 5151 2d3b
000000a0: c8e2 9c37 ef29 93b9 cfe2 9c37 c9e2 9c37
000000b0: c5e2 9c37 c7e2 9c37 c9e2 9c37 c8e2 9c37
000000c0: 8708 8b39 cee2 9c37 59fe c1ba 1570 203a
000000d0: 61a8 1ebb c7e2 9c37 c6e2 9c37 c8e2 9c37
000000e0: c6e2 9c37 c9e2 9c37 cce2 9c37 c4e2 9c37
000000f0: c8e2 9c37 cae2 9c37 c8e2 9c37 0eb2 08ba
00000100: 3dad 22ba 372f 8333 362f 8333 693b 82b9
00000110: 12e3 dfb9 afef 1cba e791 e3b9 382f 8333
00000120: 6b11 11ba 342f 8333 392f 8333 372f 8333
00000130: 7c25 0bba 362f 8333 6741 0cba c94b 33ba
00000140: affe d6b9 cddf 42b9 372f 8333 362f 8333
00000150: 382f 8333 392f 8333 372f 8333 382f 8333
00000160: 312f 8333 3c2f 8333 1947 1fba 3c2f 8333
00000170: 3a2f 8333 372f 8333 372f 8333 3aad 2aba
00000180: 7094 8433 3a2f 8333 392f 8333 362f 8333
00000190: 2260 8ab9 063a 2cb9 3d2f 8333 d709 5eba
000001a0: 372f 8333 9b39 cdb8 372f 8333 372f 8333
000001b0: 312f 8333 3a2f 8333 3a2f 8333 372f 8333
000001c0: 67bd f3b9 3b2f 8333 ce4b 5ab9 79e9 39b9
000001d0: c073 bcb9 372f 8333 362f 8333 382f 8333
000001e0: 3a2f 8333 3a2f 8333 362f 8333 3d2f 8333
000001f0: 372f 8333 392f 8333 382f 8333 fd69 c4b9
00000200: 7aab bbbc 1a3e 9bb8 1e3e 9bb8 7f8b 423b
00000210: 6cb4 503d 71d3 18be 7203 813d 1d3e 9bb8
00000220: 4ffd 223d 1b3e 9bb8 193e 9bb8 1b3e 9bb8
00000230: 9a9d 093d 1b3e 9bb8 ad5c 6abd af08 9abd
00000240: 4f73 21bd 9beb 65bc 1f3e 9bb8 173e 9bb8
00000250: 1b3e 9bb8 1b3e 9bb8 173e 9bb8 163e 9bb8
00000260: 153e 9bb8 223e 9bb8 cf95 843d 183e 9bb8
00000270: 233e 9bb8 223e 9bb8 1b3e 9bb8 1eb7 da3d
00000280: 01ca 99b8 1c3e 9bb8 1a3e 9bb8 1a3e 9bb8
00000290: aea7 42bd 343d 33bc 193e 9bb8 16f9 7a3c
000002a0: 163e 9bb8 d17b b6bb 213e 9bb8 1d3e 9bb8
000002b0: 173e 9bb8 193e 9bb8 1e3e 9bb8 1e3e 9bb8
000002c0: abd0 213d 173e 9bb8 d671 57bc c9dd 66bd
000002d0: 04cd 85bd 173e 9bb8 1d3e 9bb8 183e 9bb8
000002e0: 183e 9bb8 1c3e 9bb8 1b3e 9bb8 163e 9bb8
000002f0: 173e 9bb8 1d3e 9bb8 1b3e 9bb8 fb4c b33d
00000300: a5a7 22ba 8e5d 8333 8f5d 8333 e83e 82b9
00000310: 1adb dfb9 90e9 1cba 4b89 e3b9 925d 8333
00000320: db0a 11ba 8d5d 8333 905d 8333 8e5d 8333
00000330: fb1e 0bba 8e5d 8333 e63a 0cba 4548 33ba
00000340: e1f7 d6b9 60ea 42b9 905d 8333 8e5d 8333
00000350: 925d 8333 915d 8333 905d 8333 925d 8333
00000360: 8d5d 8333 955d 8333 3241 1fba 965d 8333
00000370: 935d 8333 905d 8333 8e5d 8333 5ba8 2aba
00000380: 1cc3 8433 935d 8333 905d 8333 8c5d 8333
00000390: af62 8ab9 4945 2cb9 925d 8333 5e10 5eba
000003a0: 905d 8333 ae4d cdb8 915d 8333 8f5d 8333
000003b0: 8a5d 8333 925d 8333 905d 8333 925d 8333
000003c0: feb2 f3b9 915d 8333 5255 5ab9 d3f4 39b9
000003d0: 8670 bcb9 8f5d 8333 8e5d 8333 8f5d 8333
000003e0: 905d 8333 925d 8333 8f5d 8333 925d 8333
000003f0: 915d 8333 8f5d 8333 8d5d 8333 c465 c4b9
0.0011319498 1.870225e-05 1.8702258e-05 0.00034329898 0.00015196078 -0.0016458525 -0.0019008836 1.8702254e-05
-0.0006239118 1.870225e-05 1.8702247e-05 1.8702254e-05 0.0023051724 1.8702258e-05 0.0010326994 0.0027441974
-0.0016679096 -0.0011592339 1.8702262e-05 1.8702252e-05 1.8702256e-05 1.870225e-05 1.8702252e-05 1.870225e-05
1.8702247e-05 1.8702262e-05 0.0015797867 1.8702258e-05 1.8702256e-05 1.8702252e-05 1.8702252e-05 0.0011280748
1.8553099e-05 1.870226e-05 1.8702252e-05 1.8702249e-05 -0.00212651 -0.0012042033 1.8702252e-05 0.0026446173
1.8702252e-05 -0.00028069268 1.8702265e-05 1.8702254e-05 1.8702247e-05 1.870225e-05 1.8702254e-05 1.8702252e-05
0.000265185 1.8702263e-05 -0.0014800533 0.0006120217 -0.0024209248 1.870225e-05 1.8702249e-05 1.8702252e-05
1.8702249e-05 1.8702254e-05 1.870226e-05 1.8702245e-05 1.8702252e-05 1.8702256e-05 1.8702252e-05 -0.00052145205
-0.0006205624 6.108751e-08 6.1087505e-08 -0.00024839796 -0.00042703055 -0.00059866434 -0.0004340552 6.108752e-08
-0.00055339065 6.108749e-08 6.1087526e-08 6.108751e-08 -0.0005308015 6.1087505e-08 -0.0005350322 -0.0006839601
-0.00041007015 -0.00018584654 6.108751e-08 6.1087505e-08 6.108752e-08 6.1087526e-08 6.108751e-08 6.108752e-08
6.108747e-08 6.108755e-08 -0.0006075963 6.108755e-08 6.108753e-08 6.108751e-08 6.108751e-08 -0.0006510798
6.1737296e-08 6.108753e-08 6.1087526e-08 6.1087505e-08 -0.00026393036 -0.00016424814 6.1087555e-08 -0.0008470094
6.108751e-08 -9.7858916e-05 6.108751e-08 6.108751e-08 6.108747e-08 6.108753e-08 6.108753e-08 6.108751e-08
-0.00046489688 6.108754e-08 -0.0002081834 -0.0001772995 -0.00035944395 6.108751e-08 6.1087505e-08 6.108752e-08
6.108753e-08 6.108753e-08 6.1087505e-08 6.1087555e-08 6.108751e-08 6.1087526e-08 6.108752e-08 -0.00037463
-0.022908915 -7.402543e-05 -7.402546e-05 0.0029685197 0.050953314 -0.14924408 0.06299485 -7.4025455e-05
0.039792355 -7.402544e-05 -7.4025425e-05 -7.402544e-05 0.033597566 -7.402544e-05 -0.05721729 -0.075211875
-0.039416607 -0.0140332235 -7.402547e-05 -7.402541e-05 -7.402544e-05 -7.402544e-05 -7.402541e-05 -7.40254e-05
-7.4025396e-05 -7.402549e-05 0.06473886 -7.402542e-05 -7.40255e-05 -7.402549e-05 -7.402544e-05 0.10679458
-7.333235e-05 -7.402545e-05 -7.402543e-05 -7.402543e-05 -0.047523193 -0.010939885 -7.4025425e-05 0.015318176
-7.40254e-05 -0.0055689593 -7.402548e-05 -7.4025455e-05 -7.402541e-05 -7.4025425e-05 -7.402546e-05 -7.402546e-05
0.039505642 -7.402541e-05 -0.013149699 -0.056363855 -0.06533244 -7.402541e-05 -7.4025455e-05 -7.402542e-05
-7.402542e-05 -7.402545e-05 -7.402544e-05 -7.40254e-05 -7.402541e-05 -7.4025455e-05 -7.402544e-05 0.08754917
-0.00062047906 6.1171804e-08 6.117181e-08 -0.000248424 -0.00042697118 -0.0005985731 -0.00043399105 6.117183e-08
-0.00055329286 6.11718e-08 6.117182e-08 6.1171804e-08 -0.00053070456 6.1171804e-08 -0.0005349353 -0.0006839077
-0.00041001945 -0.00018588593 6.117182e-08 6.1171804e-08 6.117183e-08 6.1171825e-08 6.117182e-08 6.117183e-08
6.11718e-08 6.117185e-08 -0.00060750835 6.117186e-08 6.117184e-08 6.117182e-08 6.1171804e-08 -0.0006510072
6.182219e-08 6.117184e-08 6.117182e-08 6.117179e-08 -0.00026394936 -0.00016429009 6.117183e-08 -0.0008471067
6.117182e-08 -9.789631e-05 6.1171825e-08 6.117181e-08 6.1171775e-08 6.117183e-08 6.117182e-08 6.117183e-08
-0.0004648193 6.1171825e-08 -0.00020821884 -0.00017734179 -0.0003594199 6.117181e-08 6.1171804e-08 6.117181e-08
6.117182e-08 6.117183e-08 6.117181e-08 6.117183e-08 6.1171825e-08 6.117181e-08 6.11718e-08 -0.00037459855

encoder.4.bias f4 [32]
00000000: 2fde 30b8 5f7f 77b6 dece c039 019f 77b6
00000010: e49e 77b6 dd9b 77b6 9dbb dd39 d49c 77b6
00000020: 1e9d 77b6 359c 77b6 5096 c8b9 149d 77b6
00000030: f39e 77b6 609c 77b6 0e9e 77b6 e89e 77b6
00000040: d19e 77b6 449d 77b6 d79d 77b6 389f 77b6
00000050: 9447 3038 af2a 4a39 aa9e 77b6 c712 90b9
00000060: b49d 77b6 f31f 9d39 a79c 77b6 489e 77b6
00000070: 47a8 2cba 369d 77b6 219d 77b6 cb9e 77b6
-4.2168595e-05 -3.6880008e-06 0.00036775222 -3.689842e-06 -3.6898355e-06 -3.6896593e-06 0.00042292188 -3.6897154e-06
-3.6897322e-06 -3.6896793e-06 -0.00038258964 -3.68973e-06 -3.6898389e-06 -3.689689e-06 -3.6897868e-06 -3.6898364e-06
-3.6898311e-06 -3.6897409e-06 -3.6897743e-06 -3.6898546e-06 4.2028332e-05 0.00019280122 -3.6898223e-06 -0.0002747981
-3.6897663e-06 0.00029969178 -3.6897052e-06 -3.6898e-06 -0.00065863546 -3.6897377e-06 -3.689733e-06 -3.6898298e-06

mu_layer.weight f4 [4, 32]
00000000: 5a4f 493c 72d7 e537 ea16 65bd eeaf e837
00000010: 35ac e837 5542 e837 deff 96be c55d e837
00000020: e069 e837 774d e837 c574 943e 736c e837
00000030: a0a6 e837 7651 e837 7891 e837 0ead e837
00000040: 2fa4 e837 c06a e837 bf87 e837 ddb1 e837
00000050: 4cb1 78bd 649c 34bd ca9e e837 f83e 763d
00000060: 2789 e837 613d 7dbe 275f e837 a794 e837
00000070: d511 6b3e 8571 e837 4267 e837 4ba4 e837
00000080: 15d2 ed38 4f38 5e38 12bb a7bc 1b69 5f38
00000090: 5e67 5f38 0639 5f38 4dcd efbd d444 5f38
000000a0: 244a 5f38 8a3d 5f38 76a0 6ebe 864b 5f38
000000b0: 9f64 5f38 353f 5f38 5b5c 5f38 e067 5f38
000000c0: eb63 5f38 344a 5f38 8957 5f38 366a 5f38
000000d0: 6009 833e 9eb4 32bd b061 5f38 8c9c 73bc
000000e0: 4d58 5f38 4f87 9e3e d245 5f38 5d5d 5f38
000000f0: 0e0f 903e 384e 5f38 2c49 5f38 f663 5f38
00000100: f594 15bc 94c1 d8b8 270c f23c 62c5 d8b8
00000110: b8c5 d8b8 bbcc d8b8 d4cb babe bdcb d8b8
00000120: cfca d8b8 34cc d8b8 6525 9c3e f8c9 d8b8
00000130: 0cc7 d8b8 27cc d8b8 ccc6 d8b8 84c5 d8b8
00000140: ebc6 d8b8 7acb d8b8 01c8 d8b8 c9c5 d8b8
00000150: dba8 9cbe b20e 61be 31c7 d8b8 ceeb 343e
00000160: e4c6 d8b8 a38b 013c 9dca d8b8 5ec7 d8b8
00000170: 3379 303e 63c9 d8b8 60cb d8b8 dec6 d8b8
00000180: ab04 52bb c494 0639 4a56 973c 99bd 0639
00000190: 5dbd 0639 cdb7 0639 a953 3bbe 44b9 0639
000001a0: dcb9 0639 50b8 0639 a2e3 e23d ffb9 0639
000001b0: 22bd 0639 8eb8 0639 f2bb 0639 73bd 0639
000001c0: fdbc 0639 f9b9 0639 74bb 0639 cfbd 0639
000001d0: 6e57 103d f339 8a3d bbbc 0639 0cd2 d9bc
000001e0: 85bb 0639 a103 6e3e 47b9 0639 21bc 0639
000001f0: 7780 74be 49ba 0639 c6b9 0639 eebc 0639
0.012286985 2.7399252e-05 -0.055930056 2.7738479e-05 2.7736745e-05 2.7687443e-05 -0.29492086 2.770022e-05
2.7705857e-05 2.7692628e-05 0.28995338 2.7707056e-05 2.7734146e-05 2.7694488e-05 2.7724294e-05 2.773714e-05
2.773301e-05 2.7706265e-05 2.7719767e-05 2.773938e-05 -0.06071596 -0.04409446 2.7730497e-05 0.060118645
2.7720422e-05 -0.24730445 2.7700864e-05 2.7725777e-05 0.22956021 2.7709417e-05 2.7704638e-05 2.773306e-05
0.000113401715 5.2981366e-05 -0.020474944 5.326523e-05 5.326361e-05 5.322045e-05 -0.1170908 5.3231444e-05
5.3236392e-05 5.3224656e-05 -0.23303398 5.323768e-05 5.3261054e-05 5.322621e-05 5.3253356e-05 5.3264084e-05
5.32604e-05 5.323645e-05 5.3248867e-05 5.326626e-05 0.2559309 -0.04362928 5.325832e-05 -0.014868867
5.324958e-05 0.30962607 5.323237e-05 5.3254294e-05 0.28136486 5.324019e-05 5.323549e-05 5.326044e-05
-0.009129752 -0.00010335739 0.02954681 -0.00010336448 -0.000103365106 -0.00010337817 -0.36483634 -0.00010337632
-0.00010337459 -0.000103377184 0.3049728 -0.00010337302 -0.00010336758 -0.00010337709 -0.000103367114 -0.00010336473
-0.00010336734 -0.00010337583 -0.00010336936 -0.00010336523 -0.30597576 -0.21978262 -0.00010336785 0.17668077
-0.00010336729 0.007906827 -0.00010337422 -0.00010336818 0.17233734 -0.00010337194 -0.00010337564 -0.000103367245
-0.003204624 0.00012834655 0.018473763 0.00012849866 0.00012849779 0.00012847707 -0.18293633 0.00012848253
0.00012848474 0.00012847898 0.11078574 0.00012848525 0.00012849693 0.00012847988 0.00012849251 0.00012849811
0.0001284964 0.00012848516 0.00012849068 0.00012849945 0.03523963 0.06749334 0.00012849543 -0.026589416
0.00012849092 0.23243572 0.00012848257 0.0001284932 -0.2387713 0.00012848632 0.00012848442 0.00012849618

mu_layer.bias f4 [4]
00000000: c07c 9dba 019b 2bba ad54 2339 7a45 d239
-0.0012015328 -0.00065462297 0.00015576436 0.00040106085

logvar_layer.weight f4 [4, 32]
00000000: 14b9 77b9 147b aab7 f68d 1039 f562 abb7
00000010: ff61 abb7 e946 abb7 f723 4b3b 1a4f abb7
00000020: e651 abb7 744a abb7 6093 a6ba b651 abb7
00000030: 6e61 abb7 a84b abb7 1c5b abb7 3162 abb7
00000040: 1461 abb7 4452 abb7 d258 abb7 0564 abb7
00000050: 1c5c d938 18e4 26b9 3a5f abb7 e2d6 163a
00000060: 1758 abb7 8668 5bbb 4f4e abb7 fb5b abb7
00000070: 1923 8e3a 3e53 abb7 2151 abb7 ac60 abb7
00000080: e411 c738 c54f 0c39 82ce 2938 3a76 0c39
00000090: 0076 0c39 a871 0c39 6182 bd37 f672 0c39
000000a0: 6a73 0c39 2572 0c39 5ad6 c7ba 6a73 0c39
000000b0: f775 0c39 5872 0c39 e474 0c39 0676 0c39
000000c0: df75 0c39 8273 0c39 8d74 0c39 5c76 0c39
000000d0: 308d 19ba ea26 8db7 9d75 0c39 ab36 1038
000000e0: 6f74 0c39 f62c 633b d072 0c39 1875 0c39
000000f0: a903 48b9 a673 0c39 5573 0c39 dc75 0c39
00000100: 11f5 a7b9 f2d4 0eb7 dc61 5d38 b397 0eb7
00000110: ca97 0eb7 309e 0eb7 bc87 2c3b ac9c 0eb7
00000120: ef9b 0eb7 449e 0eb7 89b7 373b c89b 0eb7
00000130: fa97 0eb7 8a9d 0eb7 2499 0eb7 3897 0eb7
00000140: c897 0eb7 1c9c 0eb7 ca99 0eb7 7697 0eb7
00000150: eac3 ceb9 2286 c9b8 eb97 0eb7 53d1 d939
00000160: eb99 0eb7 82cc 21bc 439d 0eb7 df98 0eb7
00000170: d46a e739 6d9b 0eb7 4d9c 0eb7 1798 0eb7
00000180: a493 6d39 4280 023a d8d7 bdb9 f18c 023a
00000190: e28c 023a 768b 023a d37f 9bbc e18b 023a
000001a0: 078c 023a 9e8b 023a 75d1 993c 078c 023a
000001b0: e08c 023a b08b 023a 7d8c 023a e28c 023a
000001c0: d28c 023a 0e8c 023a 648c 023a fd8c 023a
000001d0: 7cb4 f1ba 536f 9a3a bd8c 023a 0424 8fbb
000001e0: 5a8c 023a 9b6c b5ba d18b 023a 948c 023a
000001f0: 831c acbb 198c 023a 048c 023a cf8c 023a
-0.00023624703 -2.0322892e-05 0.00013785795 -2.0430869e-05 -2.0430422e-05 -2.0417809e-05 0.0030996779 -2.0421623e-05
-2.0422925e-05 -2.0419458e-05 -0.0012708716 -2.0422838e-05 -2.0430158e-05 -2.0420019e-05 -2.0427215e-05 -2.0430512e-05
-2.0429994e-05 -2.0423096e-05 -2.0426149e-05 -2.0431364e-05 0.00010364523 -0.00015915965 -2.0429132e-05 0.0005754066
-2.0425809e-05 -0.003347905 -2.0421254e-05 -2.042762e-05 0.00108442 -2.0423551e-05 -2.0422567e-05 -2.0429805e-05
9.492392e-05 0.00013381157 4.0485065e-05 0.00013395483 0.00013395399 0.0001339378 2.2591268e-05 0.00013394267
0.00013394436 0.00013393963 -0.0015246377 0.00013394436 0.00013395386 0.00013394037 0.00013394986 0.00013395408
0.00013395351 0.0001339447 0.00013394859 0.00013395533 -0.00058575254 -1.682663e-05 0.00013395255 3.438319e-05
0.00013394815 0.003466425 0.00013394211 0.00013395061 -0.0001907485 0.00013394523 0.00013394405 0.00013395346
-0.0003203531 -8.51344e-06 5.2781645e-05 -8.49918e-06 -8.499201e-06 -8.5006905e-06 0.0026326021 -8.500338e-06
-8.500166e-06 -8.500709e-06 0.002803298 -8.50013e-06 -8.499244e-06 -8.5005395e-06 -8.499515e-06 -8.499068e-06
-8.499199e-06 -8.500207e-06 -8.499666e-06 -8.499124e-06 -0.0003943735 -9.609411e-05 -8.499231e-06 0.00041545424
-8.499696e-06 -0.009875419 -8.500475e-06 -8.499453e-06 0.00044139347 -8.500047e-06 -8.500251e-06 -8.499271e-06
0.00022657082 0.00049782183 -0.00036209705 0.00049801084 0.00049800996 0.0004979888 -0.01898185 0.000497995
0.0004979972 0.0004979911 0.018776635 0.0004979972 0.00049800985 0.00049799215 0.0004980041 0.00049800996
0.00049800903 0.0004979976 0.0004980026 0.00049801153 -0.0018440629 0.0011782445 0.0004980078 -0.004368307
0.00049800205 -0.0013841571 0.0004979941 0.0004980054 -0.0052524223 0.00049799826 0.00049799704 0.00049800886

logvar_layer.bias f4 [4]
00000000: 73b5 86b8 b7b6 8cb8 f2fd 1bb9 f878 25b9
-6.4234155e-05 -6.7097535e-05 -0.00014876554 -0.0001578069

decoder.0.weight f4 [32, 5]
00000000: ddb9 b338 e241 cc38 408c 5dba 773e 13ba
00000010: 6b7f 55ba 3d8f 2f39 0b6b 82b9 699e 96ba
00000020: e3d8 adba 0de2 66ba e88f c3ba ef95 9e3b
00000030: 6493 24b8 bf0b 92bb c00f 923d 868f a739
00000040: b4a1 9c38 aa05 3aba 3e74 1e38 68d9 c7ba
00000050: 96b5 033a 947c 8439 02c5 8cba c53e 81b9
00000060: 0ffa d4ba 2934 c139 2692 9f38 5fd6 5cba
00000070: 3b0e ef38 464f bfba 1dea 043a 1aa1 9439
00000080: 6767 87ba 9e69 61b9 ce11 dbba ceda da3a
00000090: c184 4abb e86d 8f3b 4ae2 9abb 3154 193e
000000a0: 5857 be3b 7509 d43b 6717 c839 9971 403b
000000b0: f0da ba3a 21cd 6639 c4ce bcb8 e00f 98ba
000000c0: 84f3 a2ba 9730 6aba 6eba c6ba 7b33 4f3a
000000d0: cf78 a9ba 1576 45ba 0521 153e 3f3d 7535
000000e0: 745d 6fb5 2707 5db4 246c 4db4 c5e5 8dbb
000000f0: a625 edba 08f6 a23a 83e4 043c 1f02 a2bb
00000100: 554c 3f3e 5a56 19b8 f737 1aba 1dc6 6dba
00000110: 5643 6cb9 4610 93ba fcdc 73bb 5b4b 9d3b
00000120: bb5b 6c3a d79c 983b 8187 063e de2d 013a
00000130: ea0b 35b9 4031 b5ba 2b47 87ba 0fc1 82ba
00000140: ac97 9739 c0b8 54b9 e95a a9ba e10b b4ba
00000150: 942e 71ba 06f0 4639 7600 2fb9 6665 97ba
00000160: 38ad a2ba 3e20 67ba 9f7c 173a e494 9e39
00000170: 2a9a 6bba 7058 6fb8 eef4 c7ba f31a acbb
00000180: 298d 813b dced 7639 a663 743a 21a2 653b
00000190: 3f5e cabb 5e3d 2abb afd5 c6bb a914 ffba
000001a0: 1ad5 c73c 1a17 e73b 0d49 71bb d4f0 943b
000001b0: d682 aa3b 3355 913e 9bf8 4337 a270 ed36
000001c0: fbe4 f237 69fe 6eb7 7ceb 6dbb 3453 3c39
000001d0: 1769 4f38 eae5 3039 82d8 c4b6 8399 3ebb
000001e0: a38c 9a3a ecd2 93ba 1478 433a 3ad9 d13a
000001f0: e9e2 003e 845c 2d38 5fcd 4037 3b9b 8538
00000200: 0c6e adb7 49cc 5bbb 4423 5e38 5d73 1736
00000210: c5cb 7a38 99aa 11b8 15cc 5abb 2ca9 383b
00000220: 89d0 c23b b06c c63a 8e9d a5bb a66e b03a
00000230: 48df 0138 7631 2c37 456f 7838 4142 bdb7
00000240: 7342 5ebb 7fb6 0439 43b3 1f38 6e90 b538
00000250: bde1 8937 5bd6 31bb a342 d03b 4f7d ba3b
00000260: 55d3 66bb b5c9 0dbc ccc7 273d 0e5c 5b38
00000270: 5ccf 4036 2afd 7c38 9ee1 12b8 e5d6 5abb
8.570005e-05 9.73975e-05 -0.000845138 -0.0005616913 -0.0008144292 0.00016742661 -0.00024875285 -0.0011491302
-0.001326349 -0.0008807488 -0.0014920207 0.004839651 -3.9237915e-05 -0.0044569666 0.0713191 0.00031959655
7.468779e-05 -0.0007096181 3.7778394e-05 -0.0015247287 0.0005024312 0.0002526982 -0.0010739865 -0.00024651564
-0.001624884 0.0003685069 7.608933e-05 -0.0008424278 0.00011399059 -0.0014595769 0.0005070286 0.0002834879
-0.0010330499 -0.00021497018 -0.001671368 0.0016697289 -0.0030901881 0.0043771155 -0.004726683 0.14973523
0.005808752 0.006470854 0.0003816441 0.0029364584 0.0014255922 0.00022010926 -9.003052e-05 -0.0011601411
-0.0012432192 -0.0008933632 -0.0015161762 0.00079040945 -0.001292968 -0.0007532549 0.14563377 9.1358737e-07
-8.917043e-07 -2.0584831e-07 -1.9131454e-07 -0.004330369 -0.0018092885 0.0012432942 0.008111122 -0.0049441005
0.18681462 -3.6558464e-05 -0.0005882973 -0.00090703537 -0.00022531798 -0.001122006 -0.0037210574 0.004800243
0.00090163545 0.0046573686 0.13137628 0.0004927794 -0.00017265943 -0.0013823882 -0.0010320892 -0.0009975749
0.0002891397 -0.0002028672 -0.001292077 -0.001373645 -0.0009200361 0.00018972167 -0.00016689472 -0.0011550605
-0.0012411242 -0.0008816755 0.0005778763 0.0003024704 -0.0008987511 -5.7064404e-05 -0.001525549 -0.005252236
0.003953595 0.00023548998 0.000932271 0.0035039263 -0.006175786 -0.002597652 -0.0060679535 -0.0019461113
0.024393607 0.0070523145 -0.0036817223 0.0045453105 0.005203585 0.28385314 1.1680789e-05 7.0762626e-06
2.8955275e-05 -1.424514e-05 -0.003630369 0.00017960073 4.945052e-05 0.00016870318 -5.86646e-06 -0.00290832
0.0011791181 -0.001127807 0.00074565527 0.0016010173 0.1258656 4.1332576e-05 1.14919085e-05 6.370848e-05
-2.0674452e-05 -0.0033538511 5.296177e-05 2.2567904e-06 5.979442e-05 -3.4729575e-05 -0.0033385803 0.0028177006
0.0059452695 0.0015138593 -0.0050541824 0.001346071 3.0963944e-05 1.0263515e-05 5.9231435e-05 -2.2561408e-05
-0.0033914119 0.00012656486 3.8075505e-05 8.657655e-05 1.643679e-05 -0.0027135822 0.0063556 0.0056912075
-0.0035221179 -0.008654048 0.040962026 5.22994e-05 2.8730929e-06 6.031726e-05 -3.5019235e-05 -0.0033392247

decoder.0.bias f4 [32]
00000000: 10df 13b9 4c39 bcb9 f0a2 793d e4f6 083a
00000010: 982c 7239 132b 0c3a 34ba 5839 e99d e2bc
00000020: 9d55 94bc 44d3 b0b9 83dc 90ba 6d42 2734
00000030: 2f6a 79bc 1e07 1338 c8da 07bc f51f 1938
00000040: 200b bbb9 dd29 a9b9 f2c5 9339 9d64 87bc
00000050: df52 7dbd 0157 f3bc 551c 4637 b7c1 2439
00000060: 9495 2a3d 9afe 0838 cd7a 1238 7e7c 6abd
00000070: 7d25 ef37 afd3 3439 94f8 e43b 0315 1338
-0.0001410211 -0.00035900844 0.060946405 0.0005224778 0.00023095531 0.0005346995 0.00020668731 -0.027663188
-0.01810723 -0.0003372674 -0.0011052046 1.5577253e-07 -0.01522307 3.505416e-05 -0.008291908 3.6507805e-05
-0.00035675708 -0.00032265382 0.00028185506 -0.016527468 -0.06184661 -0.029704573 1.1808316e-05 0.00015712423
0.041646555 3.2662043e-05 3.492348e-05 -0.05724763 2.8508477e-05 0.00017244996 0.0069876406 3.50671e-05

decoder.2.weight f4 [64, 32]
00000000: aae4 d83a 3a15 603b b945 4d3e 08b4 713a
00000010: 3c90 2f3b a4b9 833a c259 313b 79ec 543e
00000020: 6a7a 04be 1a0e 533b 94e9 ce3d ef8c 9a39
00000030: dc5e 543e 4439 743b 3818 1f3e fc4a 6f3b
00000040: 42a9 743b b4c1 533b c173 9a3a 7e55 b1bd
00000050: 04a9 6e3e aed5 d5bd 4719 8b39 5032 a03a
00000060: 2bb1 58be 376d f439 89e6 6a3a e941 21be
00000070: 96ae c739 0bfc cd3a 35d5 6fbe e586 643a
00000080: bc80 f9b9 35ac 5f3a 2351 35be 6610 c8ba
00000090: 8c98 a1ba 972e b5ba 61a3 97ba a28b 413e
000000a0: 481e f13d 1a01 0d3a d799 6c3e 6d71 5cb9
000000b0: e7a4 1f3e 96e6 67bb 8c34 f5bc edb6 3f3a
000000c0: 0129 813a 5d7a 373a ed15 4cba a252 183e
000000d0: e5f1 1cbe 8318 35be 68f0 07ba ba30 65ba
000000e0: 6134 2f3e 1a8c 2aba 88de bfb9 b244 0dbc
000000f0: 777d 1dba df8a 5dba a624 11be 0968 c3b9
00000100: 5cd0 c435 9a98 c735 0b52 a1ba b975 b835
00000110: 4de6 ac35 a59e ba35 0ea1 a935 5806 24bb
00000120: 6051 9637 8010 c735 0c10 20bb 2a6f 7f32
00000130: 60ce 4bbb e0ec c835 8d62 10bb 54f6 c235
00000140: 488a c735 260f c735 3d76 b735 de1c 43b7
00000150: f007 0bba d75b 98bb ec76 aa33 a6e6 ad34
00000160: d1bf 0abb 324b 1f34 2d5e 2b34 f99f 9637
00000170: a6ab 1434 8141 e234 eb2a 4cba 18f7 2a34
00000180: 2ca3 6db7 5e3c 78b7 fcba 67ba 45a3 3cb7
00000190: 94fc 20b7 e10d 48b7 01b2 19b7 cfba 06bb
000001a0: f5ad d938 5358 7ab7 bda4 04bb e462 7fb3
000001b0: e902 31bb d8b7 64b7 2ef4 e9ba d566 7fb7
000001c0: b4af 7bb7 c2d1 7ab7 0cf5 28b7 b41e 5f39
000001d0: b715 26b8 0afd 62bb 79fc 81b4 f03a a1b5
000001e0: 6c27 e0ba 0ea6 00b5 8ffd fcb4 98c3 ec38
000001f0: c40b c5b4 4a51 dcb5 0d02 c0b9 70d5 fab4
00000200: 14d3 afb7 f519 b9b7 e33c 60ba a17e 93b7
00000210: 6983 82b7 9ae0 9ab7 9042 7ab7 04f3 f3ba
00000220: 6b7f e838 1073 bab7 aba9 eeba f404 b7b3
00000230: 4405 1bbb 18cd b5b7 fe5f d4ba 0219 c2b7
00000240: 5c02 bcb7 b281 bab7 58c8 87b7 29dc 5b39
00000250: 5f86 0db9 d8d2 6fbb c8a7 d9b4 fa9c 09b6
00000260: ae51 ccba d35e 5ab5 bfd8 59b5 db05 0939
00000270: e26c 2fb5 936e 48b6 efb1 e4b9 ba67 58b5
00000280: 55d2 c93b 69c5 ca3b cde8 6bbc 940e 853b
00000290: 2b85 163b 9386 863b 185a 143b ba0c 03bd
000002a0: 8de4 66be 5c42 c93b a1d8 513e 0dd1 a9b8
000002b0: a75f 8fbc 2e6f a93b 7e18 47be 5601 bc3b
000002c0: 0128 c73b e0dc cf3b 8531 203b b0f6 5dbc
000002d0: 0b1f 6a3e 2e52 123e c25c 153a edca 0f3b
000002e0: fc66 27bd af73 6c3a 82f6 883a 6336 e83d
000002f0: f485 603a 924b a13a a3f5 9bbd dfbb 893a
00000300: 107d 9fb7 24d1 d93a efde dd3d 1f54 a43a
00000310: 66ad 533b 4061 b93a c455 533b 777d e73d
00000320: dbed 0d3d 16b3 be3a 6671 033e 4601 7d39
00000330: c03c 5dbe c5ac 6e39 bcce 0abe d636 f23a
00000340: 01e1 f33a d407 c13a 17b9 413b a349 c4bd
00000350: 8806 c9bd 74db 343e 71db 103a 7ab9 b03a
00000360: 5b92 9a3d 5473 403a 548c 573a fe60 fbba
00000370: 6d5f 363a 6dc9 c73a 62e3 cd3d 5648 583a
00000380: ed83 f7ba de73 2bba df37 313e 29a4 e6ba
00000390: d645 9739 a334 d9ba e009 c639 1da8 8ebc
000003a0: f85c b33d 84d9 56ba b168 31bd fabd 32b9
000003b0: 3d99 7f3d 7cd6 5fbb dcdb ce3c ded2 c9b9
000003c0: 034b a0b9 c2f1 4cba 8e11 0439 bd33 5dbe
000003d0: 6ddb a6bd 8fba 723e 1a1c 13ba b9ef 99ba
000003e0: 8666 0e3e 4543 38ba 7263 2fba b8df ed3b
000003f0: cbeb 2eba 9ad0 19ba 6deb 90bc b3fb 2eba
0.0016547639 0.003419234 0.20046128 0.0009220247 0.0026788851 0.0010049832 0.0027061556 0.20793332
-0.12937322 0.003220445 0.10103145 0.00029478173 0.20739311 0.0037265578 0.15536582 0.00365132
0.003733233 0.00323115 0.0011783765 -0.086588845 0.23306662 -0.10441147 0.0002653098 0.0012222026
-0.21161334 0.00046620678 0.0008960744 -0.15747799 0.00038086314 0.0015715373 -0.23421176 0.00087176106
-0.00047588896 0.0008532436 -0.17706732 -0.0015263676 -0.0012328788 -0.0013823089 -0.0011569076 0.18900922
0.11773354 0.0005378887 0.2310556 -0.0002102309 0.15590249 -0.0035385243 -0.029932283 0.000731333
0.0009854139 0.00069991295 -0.00077852496 0.14875272 -0.1532665 -0.17685132 -0.00051856646 -0.00087429176
0.17109825 -0.0006505862 -0.00036596158 -0.008622335 -0.00060077704 -0.00084511744 -0.14174137 -0.0003727081
1.4663779e-06 1.4871068e-06 -0.0012307776 1.374333e-06 1.2882025e-06 1.3904252e-06 1.2638354e-06 -0.0025028195
1.7919287e-05 1.4831458e-06 -0.0024423627 1.4868229e-08 -0.003109835 1.4970101e-06 -0.0022031397 1.4525817e-06
1.48669e-06 1.4831064e-06 1.3668974e-06 -1.1629627e-05 -0.0005303612 -0.00464962 7.937874e-08 3.239158e-07
-0.002117146 1.4835385e-07 1.5959877e-07 1.7955887e-05 1.384602e-07 4.214344e-07 -0.00077883777 1.5922376e-07
-1.4164292e-05 -1.4796007e-05 -0.00088398135 -1.1243687e-05 -9.595551e-06 -1.192416e-05 -9.160955e-06 -0.0020558124
0.00010379768 -1.4921726e-05 -0.0020239793 -5.9461755e-08 -0.0027009791 -1.36326635e-05 -0.001784926 -1.5223127e-05
-1.5001675e-05 -1.4949999e-05 -1.0070635e-05 0.00021278375 -3.9597708e-05 -0.0034635686 -2.421182e-07 -1.2012588e-06
-0.0017101592 -4.792536e-07 -4.7123146e-07 0.00011289789 -3.670267e-07 -1.6414936e-06 -0.00036622622 -4.6721425e-07
-2.0959917e-05 -2.2065806e-05 -0.00085539947 -1.7582732e-05 -1.55584e-05 -1.8462819e-05 -1.4916659e-05 -0.0018611853
0.000110863555 -2.2226508e-05 -0.0018208524 -8.5225025e-08 -0.0023654262 -2.1672386e-05 -0.0016202924 -2.3138247e-05
-2.2412445e-05 -2.2233322e-05 -1.6186546e-05 0.00020967484 -0.00013496865 -0.0036594179 -4.0541477e-07 -2.0505963e-06
-0.0015588307 -8.1349316e-07 -8.1154207e-07 0.0001306752 -6.5351026e-07 -2.9866685e-06 -0.0004362012 -8.061721e-07
0.0061591067 0.006188084 -0.014398766 0.0040605757 0.0022967558 0.004105398 0.0022636708 -0.03199456
-0.22548123 0.006141944 0.20492794 -8.097487e-05 -0.017501665 0.0051707244 -0.19442937 0.005737464
0.006077767 0.006343469 0.0024443578 -0.013547584 0.22863404 0.14289162 0.0005697721 0.0021941022
-0.040869698 0.0009019924 0.0010449442 0.113384984 0.00085648824 0.0012305847 -0.07615211 0.001050826
-1.9012514e-05 0.0016618115 0.10833537 0.0012537277 0.0032299398 0.0014143363 0.0032247165 0.113032274
0.034650665 0.0014549221 0.12836227 0.00024128435 -0.21605206 0.0002276181 -0.13555425 0.0018479477
0.0018606485 0.0014727064 0.0029559785 -0.095843576 -0.09815699 0.1766184 0.00055258634 0.0013483011
0.07547446 0.0007341404 0.00082225096 -0.0019178686 0.00069569686 0.0015242525 0.100531355 0.0008250525
-0.0018883921 -0.0006540398 0.1730647 -0.0017596531 0.00028852996 -0.0016571473 0.0003777286 -0.017414147
0.08757967 -0.00081958645 -0.043312732 -0.00017046175 0.062402 -0.0034154942 0.025251321 -0.00038494816
-0.00030573466 -0.0007818007 0.0001259504 -0.21601768 -0.08147321 0.23703979 -0.00056117924 -0.0011744417
0.13906297 -0.0007029067 -0.0006690539 0.0072593354 -0.0006672709 -0.0005867571 -0.017690385 -0.00066750793

decoder.2.bias f4 [64]
00000000: 0194 4c3d 347a 8e3d 5471 4837 0e65 0a39
00000010: 79a1 3d39 cf71 9dbd 36a7 13bb 4807 a93d
00000020: 2d85 12bd 8b17 a1b8 b0a0 f1b6 6253 fb3b
00000030: ff6d 09b8 ca5d d03d 534a ed37 3505 8138
00000040: 45ce 3c38 2917 7439 6ed7 7237 e919 31bd
00000050: a889 4b38 c3c6 1c3c 57e1 0338 d8fe 6537
00000060: 3941 0a38 18c0 9939 d8dc c6bd ae77 903d
00000070: ab02 33bd 8418 7cbd 63a1 0eb9 767e 12bc
00000080: b626 3c38 73d9 8ebd 35db 773d b6f8 ce3c
00000090: a072 a83d 5331 0538 394d 8cbd 3c3e 8539
000000a0: 016b 383c 6658 e4bc ed2b 1639 5ac8 3837
000000b0: 1a13 a9b6 76d6 2d39 c569 e838 8a4a d639
000000c0: d036 2e3c b987 f9bd 7666 0a3a 6709 6239
000000d0: 66fa a639 4361 e1b8 42e0 c639 7b84 1038
000000e0: 9fd1 f438 2ee0 1f3d dcee 8a39 4a54 6e37
000000f0: 353f 9737 e4ee 33bd 3591 2dbd 9e89 b23c
0.049945835 0.06956902 1.1947315e-05 0.00013198351 0.00018084598 -0.07687723 -0.0022530085 0.08253342
-0.035771538 -7.6814635e-05 -7.201066e-06 0.007669852 -3.2765787e-05 0.10174139 2.8287212e-05 6.152169e-05
4.5014796e-05 0.00023278281 1.4474483e-05 -0.0432376 4.8527174e-05 0.009568873 3.1442698e-05 1.3708799e-05
3.2962507e-05 0.00029325555 -0.09710091 0.07054077 -0.043703716 -0.061546817 -0.00013602297 -0.008941283
4.4858745e-05 -0.06975069 0.060511786 0.025265079 0.08224988 3.1755608e-05 -0.068506666 0.00025414105
0.0112559805 -0.027874183 0.00014321478 1.1013903e-05 -5.038816e-06 0.00016578459 0.00011082323 0.00040872797
0.0106331855 -0.1218409 0.000527955 0.00021556542 0.0003184855 -0.000107469525 0.00037932588 3.4455657e-05
0.000116738716 0.039032154 0.00026499375 1.42055305e-05 1.8030036e-05 -0.043928996 -0.04237481 0.021794137

decoder.4.weight f4 [8, 64]
00000000: 0a3e 5cbe 5877 7bbe d325 883a d1bf fd3a
00000010: 9602 473b a3cc 3a3e ca51 fb3d 87ed 84be
00000020: af8a 663e 347f 813b 33ec bbba 26e5 48be
00000030: 4d83 1d3c 6fbb 86be 9eb4 803b 16d0 6039
00000040: dc44 a93a 5552 c03b da11 ef39 4e67 573e
00000050: f326 f13b 9959 5c3d 00e5 cc3a 3d10 d43a
00000060: b61a 093a f23e a63b 7d38 3d3e b77f 3fbe
00000070: 0bfb 273e 3a0e 4c3e 167b d43b ee08 0e3d
00000080: 3140 9b3a 5dd3 2d3e 9b50 86be 50e2 43bd
00000090: 5e96 47be bae5 973a 3161 8a3e 1bf5 e03a
000000a0: d6ca e33d 358a b53c d28d 383b a7bf c73a
000000b0: 3350 e73a bf14 703b b5d5 7f3b 4781 1b3e
000000c0: 891e 2f3e 1a95 693e e387 b03a ef1b 8b3b
000000d0: 18cb aa3b 3bf6 c43b 4ed0 273a 4b18 df39
000000e0: 9848 283b bb99 d7bd 762b 563a 6c8a 713a
000000f0: e26b c639 d375 403e 8d3c 433d 4fc5 7bbe
00000100: bd7c 83be b17b 383e 46f0 ccba a035 d2ba
00000110: 2bf6 40ba 1230 f9bc 7032 7bbe 683e a43d
00000120: bf1c 56bd 7c5d f1ba 882b 72ba ca3c ef3d
00000130: df9f 2e3b 44bb f3bd c742 493b 5159 cdba
00000140: 4dcb 13b9 69a3 a43a c1c0 cfba bf20 bbbd
00000150: 4e20 323a 148b 213d f737 edb9 f129 aaba
00000160: 737e 4cba 1fa6 74b7 6d75 8d3e 85f6 e7bd
00000170: 3dfe 20be 1575 60be 6f24 cc3a 4a39 953e
00000180: 9a11 a4ba 465b 163e 3032 443e 7487 33be
00000190: 1ff7 10be d4d7 9d3a 98ba 82be bed5 7dbb
000001a0: 7300 99bc 9387 d7bd 7035 8cba 6680 c8ba
000001b0: e563 9aba a42b e13a 7171 14bb b6b8 60be
000001c0: bc28 6ebe fe35 693e 874d e1bb 42e1 0a39
000001d0: 73fc 8eba 0405 cc39 eef9 93bb 8305 b6ba
000001e0: 633a 94ba 4e8d 1e3e 562f 79bb 5e84 b239
000001f0: 33de fbb9 895d 59be 93e7 d43d e1a3 7a3e
00000200: cec3 243e f898 043e 6963 c53a c41b 913a
00000210: b1f4 f43a 7f33 293e 77d8 423e 0277 173e
00000220: 39c0 74be f0cd 773b a401 6d3a d1c4 18be
00000230: 2fa0 333b af86 50be ee90 1eba 6391 293b
00000240: 035c 5eb9 0961 3d3b 3a3c c33a 0406 64bd
00000250: 6c2c abb8 8251 85be 7bea bc39 49e0 0c3b
00000260: f295 5e3b 87e5 843b 5d44 b9bd 1598 31bd
00000270: 894b 653d 88e9 093e ea00 0b3b 8a1f 09bd
00000280: 77fc 123b 86f7 b33a 7452 713e 12b1 fc3d
00000290: 27f5 28bd e637 463b c00a 4f3e c7c2 8b3b
000002a0: 289a d2bd 85bf 5c3e c893 193b aada ef3a
000002b0: b3e2 d63a ab72 893b 08d6 a33b f003 02be
000002c0: a9fb 24be e217 24be b3f7 c63a 0e5e 293b
000002d0: bafb 363b 43b9 563b 4909 363b edc0 153b
000002e0: 855d f03b 2d2c 50be 73da 413b 302f b33a
000002f0: e55e 2b3b 44c2 9dbd 5cbd 00bd 1481 e63d
00000300: ead9 81be 4f9b 893e 4b6a d1ba b224 ca3a
00000310: b806 b83a 10ca c43d 80a1 48be 3032 0b3e
00000320: 4620 87bd bedb 38ba c52d 9fba 2269 cabd
00000330: eccc 8abb 83db f43a 1ca9 c53b a7f2 1b3a
00000340: 2a09 563b 9332 3a3b 3e06 85ba c3e6 2bbe
00000350: 74cb 8fbb ebde eabb 286d 823a 69da 28bb
00000360: 765e afba 0c4d e93a b502 013e 8806 ee3d
00000370: 79b9 29be a141 13bd 6c10 4dbb 26b7 503e
00000380: 137e 0aba 0fbc c6bd e2fd 283e 13d1 90bc
00000390: 8f0a 3dbc 6df2 15ba 4d71 c5bd 268a e83a
000003a0: 63c1 5d3e b85d 8fbd be94 49b8 1de6 19bb
000003b0: de70 13bb 3a10 203b 2cad 26bb cd0e 8b3d
000003c0: 4752 8b3e 7f72 8ebd 1c97 bd3a e607 103b
000003d0: 0cc7 553a e95a 14bb 54c9 ee3a 8838 80ba
000003e0: c7ad 903b bfbd 493e dbeb 033b abc4 25bb
000003f0: ce1f 31ba 07a1 4dbd e4ff 79be 388e 07be
-0.21508041 -0.24557245 0.0010387249 0.0019359534 0.0030366532 0.18242125 0.122714594 -0.2596247
0.22513841 0.0039519314 -0.0014337361 -0.19618663 0.009613824 -0.26314875 0.0039277812 0.00021439823
0.0012914198 0.0058691897 0.00045598933 0.21035501 0.0073593794 0.053796384 0.0015632212 0.0016179156
0.00052301155 0.0050734216 0.1847858 -0.18701063 0.16404359 0.19927302 0.0064843995 0.034676485
0.0011844692 0.1697516 -0.26233372 -0.04782325 -0.19490954 0.001158885 0.27027276 0.0017162891
0.11122672 0.022160629 0.0028160703 0.0015239612 0.0017647803 0.003663346 0.0039037291 0.15186034
0.17101492 0.22810784 0.0013468232 0.0042452733 0.005212199 0.0060107983 0.0006401584 0.00042551974
0.0025678035 -0.10527369 0.00081699283 0.0009214047 0.00037845882 0.18794946 0.047665168 -0.24586986
-0.25681105 0.18015935 -0.0015635572 -0.001603771 -0.00073609006 -0.03041843 -0.24530959 0.080197155
-0.05227351 -0.0018414701 -0.0009238054 0.116815165 0.0026645584 -0.119009525 0.0030709968 -0.0015666877
-0.00014094748 0.0012560907 -0.0015850292 -0.09137105 0.0006794975 0.039439276 -0.0004524586 -0.001298247
-0.0007800825 -1.4582211e-05 0.2762865 -0.11326317 -0.15721984 -0.21919663 0.0015574823 0.2914527
-0.0012517453 0.14683256 0.1915977 -0.1753214 -0.14156769 0.0012042471 -0.25532985 -0.0038732137
-0.018676972 -0.105239056 -0.0010697078 -0.0015297055 -0.0011779038 0.0017179144 -0.0022650624 -0.21945462
-0.23257726 0.22774503 -0.006875697 0.0001324462 -0.0010908976 0.0003891365 -0.004515878 -0.0013887141
-0.0011308905 0.15483591 -0.00380226 0.00034049427 -0.00048040002 -0.21227087 0.10395732 0.24476577
0.16090319 0.12948978 0.0015059534 0.0011070897 0.0018688646 0.1652355 0.19027887 0.14791492
-0.23901452 0.0037811957 0.0009041077 -0.1491883 0.002740871 -0.20363878 -0.0006048818 0.002587401
-0.00021205847 0.0028896949 0.0014895268 -0.0556698 -8.1621896e-05 -0.26038748 0.00036032856 0.002149599
0.0033963886 0.004055682 -0.090462424 -0.043357927 0.05598024 0.13467991 0.0021210262 -0.033477344
0.0022428313 0.0013730384 0.2356661 0.12338461 -0.04124942 0.003024572 0.20218945 0.0042651626
-0.10283309 0.21557434 0.0023434032 0.001829942 0.0016394466 0.0041945777 0.0049998797 -0.12696815
-0.16111626 -0.16024736 0.0015180021 0.0025843414 0.0027921037 0.0032764233 0.002777653 0.0022850588
0.007335367 -0.20329352 0.0029579669 0.0013670679 0.002614909 -0.07703069 -0.031430587 0.112550884
-0.25361568 0.26876304 -0.0015977112 0.0015422313 0.0014040088 0.09608853 -0.19592857 0.13593364
-0.065979525 -0.0007051787 -0.0012144378 -0.09883334 -0.0042358544 0.0018681142 0.0060321223 0.0005948939
0.003265927 0.0028411492 -0.0010148955 -0.16787247 -0.004388267 -0.007167687 0.0009950744 -0.0025764948
-0.0013379592 0.0017799451 0.12598689 0.116223395 -0.16574658 -0.03595126 -0.0031290306 0.20382366
-0.0005283069 -0.09703838 0.16503099 -0.01767782 -0.011538162 -0.0005720023 -0.09640751 0.0017741367
0.21655802 -0.07000297 -4.806066e-05 -0.0023483105 -0.0022497694 0.0024423734 -0.0025432808 0.067899324
0.2721121 -0.06955432 0.001446459 0.0021977364 0.00081549655 -0.0022637194 0.001821796 -0.0009782473
0.004415247 0.19701289 0.0020129594 -0.0025294225 -0.00067567534 -0.050202396 -0.24414021 -0.13237846

decoder.4.bias f4 [8]
00000000: b7c3 73be 6ade ecbd 9951 28bd 02d2 7d3d
00000010: 3ee6 bb3d 3847 89bc cdaf 2a3c af06 f6bc
-0.23805128 -0.115658596 -0.041093443 0.061967857 0.091747746 -0.016757593 0.010417891 -0.030032484
