hybrid_models/curve_predictor.pt (torch, 346869 bytes, 6 tensors)

net.0.weight f4 [256, 8]
00000000: 52fe b43e e9ad 983e 32f3 b3bd 2214 813e
00000010: ddfa aebd 5f85 5f3d 50b7 f1bd 987a 973e
00000020: 2353 9f3e 66ed 57be b450 e63e b931 343d
00000030: 8b0d 683e e27b 273d 4300 5a3e d068 2fbd
00000040: e436 a13e 3b2f 763d 1151 58be e37e b13d
00000050: b977 29be 5123 86bd 3ef4 bdbd 19f2 853e
00000060: ee40 96be e020 67be d120 2ebe 32bf 17be
00000070: cd85 263d 37c9 73be e632 a43e 5eae cebe
00000080: 136d 7a3e 7d8b 603d 4c32 32be a509 513e
00000090: 3e8b 4b3d eae2 973e 694c 3a3b ffe1 6abe
000000a0: 43fe cf3d 11c8 37bd 4dd1 5d3e 16a3 903e
000000b0: 5c50 353e 967b 33be 1d0c 4a3e ed2c 5f3d
000000c0: 3598 3b3e 3748 8fbe 3452 b1be 144d e2bd
000000d0: c9e5 7bbe 3a16 9d3e 447e dc3d af28 2b3e
000000e0: 597e 0e3e b386 0a3c 35e1 ba3e 340d 5abe
000000f0: d86e 3a3d 64b2 8dbe b921 c63d 2fa2 cabd
00000100: 9a72 183e 5617 c8bd b3f0 a53e 1e2d 22be
00000110: 42fa 2abe 924b 7bbe 2b32 9a3e 568a 1a3e
00000120: 39d9 b33e 5391 a6be 5acf 9fbe 9128 54be
00000130: 0415 4fbe 7d21 f83d d08d 043e 851c bb3e
00000140: f7b8 2abe 807c 99be a99e 053e 31cb bcbd
00000150: 45e7 233e 9fb5 0c3c c33d 7e3e adf3 e6be
00000160: dbcf 72be 04ef a73d d8fa e73c 65a5 31bd
00000170: 49ef 3b3e a7ef 823e ec96 a3be 62be 89be
00000180: b783 af3e 4616 b1bd 34ed 57be 7153 9ebe
00000190: 7d95 18be 5377 0a3e 3350 17bd d3de acbe
000001a0: 07d9 9cbc fa7c 91be 1e5f 90be 1ca7 31be
000001b0: bc39 97be 7f37 7bbe abb0 a63e fe54 c63d
000001c0: ff4a f53d a77a b8be 2389 b3be 90f7 b3bd
000001d0: ba2c 583d 12ef 96be 1057 f0bd 0336 4abe
000001e0: a0a5 65bb 7d03 f5bd ac56 19be 61df 3abe
000001f0: 85cd 26be 489b cfbd 303a edbd b55e d5be
00000200: 911d 9d3e cbdf 71bd b159 9c3e 9ca9 a43d
00000210: da2a 6dbe 1b74 883e 4a6d e4bd 5f1c 20be
00000220: 7d19 aebe ee8f debe 04b1 c43d c78b 28bd
00000230: 4018 e63d dfbb 25be f096 a53e 1a5b 9fbe
00000240: f2cc 563c acf5 473d 8477 813e 0ca8 693e
00000250: 3bc9 9b3e 0c03 7bbe 8495 c93d e186 65be
00000260: 5efc c4bd dd68 8ebe 9359 f13e 27da 47be
00000270: 3559 0d3e 4c53 053e 06b9 c23d 803d b0be
00000280: abc3 b53e 370b cf3d 1d33 5d3c 8420 75be
00000290: da58 053e 0560 94bd a8a5 f3bd b60e 9e3e
000002a0: 4b32 b53d 8116 9bbe 6a91 85be b9fd 243c
000002b0: 525a 543e f18f 82bd 3e73 78be 9dbe 09be
000002c0: 49ee 95be 0b5a e03d 444c de3e b9d2 83be
000002d0: b3fd 743d 97f8 483e 5aac 143d da5f 47be
000002e0: bc22 693e 3d5f 673e 3c8e 0f3e 8555 6dbd
000002f0: eb0c 0cbd 3f00 163c 487c 253d 6f0b e1bd
00000300: 50d9 a53e 45ba c53e 8fb1 39be ce1c c5bd
00000310: 2f29 e23c 9ed4 c1bd ea21 843e fa0c d23d
00000320: 4ee4 bbbe c731 f8bd 2d9c b13e ff12 b13d
00000330: 97b3 073d 047f a7bd 8a18 5abe cd9d c2be
00000340: b0ff 98bd d7ad 113e 15f5 ce3e ce33 003e
00000350: 6adb 75be 8c67 3abe 0681 cebd 062f f23e
00000360: 1b3b 5dbd a538 d6bd ddb0 243e 4737 01be
00000370: 9545 38be 4481 733e 4ccd 5fbe 5be0 cabd
00000380: 5821 b1be 2082 973e 41cc d13e cd70 aa3d
00000390: 27d1 52be eda7 9cbe 0d5a a3be 26a5 b43e
000003a0: 851f e03d e892 c23e c5c5 753e 890d 933d
000003b0: dc56 613d 3c26 28be 6847 75be 626a e4be
000003c0: cb08 2c3e 6310 35be 9296 b2bd 4585 28be
000003d0: 0a39 59bd 9bb0 8ebe 9ff4 43be ec10 4e3e
000003e0: 84d8 1bbe b2a0 653e 2687 f7bd 3521 40be
000003f0: a21f 133c 381e abbd 6ac6 d9bd 4aef e1be
0.3535028 0.29820183 -0.0878662 0.25210673 -0.08543942 0.054570552 -0.11802542 0.2958572
0.31118116 -0.21086654 0.44983447 0.04399273 0.22661416 0.04088963 0.21289162 -0.042824566
0.3148719 0.060103636 -0.21124674 0.0866678 -0.16549577 -0.06549705 -0.09275101 0.26161268
-0.29346412 -0.22571135 -0.17004706 -0.14819029 0.040654946 -0.23807226 0.32070082 -0.40367407
0.24455671 0.054820526 -0.17401999 0.20413835 0.04969334 0.2966531 0.0028426892 -0.22937773
0.101559184 -0.044868533 0.21661873 0.28249425 0.17706436 -0.17527613 0.19731183 0.054486204
0.18319781 -0.27984783 -0.34633029 -0.11049858 -0.24599375 0.3068102 0.10766271 0.16714738
0.13915385 0.008454966 0.36499944 -0.21294099 0.045515865 -0.27675164 0.09674401 -0.09894215
0.14887467 -0.09770076 0.324102 -0.15837523 -0.16697028 -0.24540547 0.301164 0.15091833
0.35126665 -0.3253275 -0.31212884 -0.207186 -0.2022286 0.121157624 0.12944722 0.36545196
-0.16672121 -0.29977798 0.13048805 -0.09218443 0.16006191 0.008588224 0.24828248 -0.45107785
-0.23712103 0.081998855 0.028317854 -0.043370623 0.18352999 0.25573465 -0.31951082 -0.26903063
0.34280178 -0.086468264 -0.2108658 -0.30923036 -0.14900775 0.13522081 -0.03694172 -0.3376375
-0.019146455 -0.28415662 -0.2819757 -0.17348903 -0.29536235 -0.24532889 0.32556662 0.0968418
0.11977195 -0.36031076 -0.35065565 -0.08787453 0.05277703 -0.2947927 -0.11735356 -0.19747166
-0.0035041347 -0.11963556 -0.14974469 -0.18249275 -0.16289337 -0.101370394 -0.11583364 -0.41673818
0.3068662 -0.059051316 0.3053718 0.08040163 -0.23160878 0.2665108 -0.11153658 -0.15635823
-0.3400382 -0.43469185 0.096040756 -0.041148927 0.11235094 -0.16184948 0.3234172 -0.31124192
0.013110386 0.048818275 0.25286496 0.22818011 0.30426964 -0.24512881 0.09842971 -0.22414733
-0.09618448 -0.2781438 0.47138652 -0.19516812 0.13803561 0.13020056 0.09507947 -0.3442192
0.35500845 0.10109561 0.013500956 -0.23938185 0.13022175 -0.07244877 -0.11896831 0.308706
0.08847483 -0.30290607 -0.26087505 0.010070258 0.2073758 -0.06375111 -0.24262711 -0.1345162
-0.2928336 0.10954674 0.4341756 -0.25746706 0.05981226 0.1962608 0.03629718 -0.19470158
0.22767156 0.22594924 0.14019102 -0.057942886 -0.034192007 0.009155332 0.040401727 -0.10988509
0.3239236 0.38618675 -0.1813414 -0.09624635 0.027607528 -0.09464382 0.25807124 0.10256381
-0.3669762 -0.12118869 0.34689465 0.08646201 0.033130255 -0.08178523 -0.21298423 -0.38011017
-0.074706435 0.14226471 0.40421358 0.12519762 -0.24009481 -0.18203562 -0.10083203 0.473015
-0.054011445 -0.10460023 0.16083093 -0.12618743 -0.17995293 0.2377978 -0.21855658 -0.09906074
-0.34595752 0.29591465 0.40976146 0.08322296 -0.20587598 -0.30596867 -0.3190464 0.35282248
0.10943512 0.38002706 0.24001224 0.07180316 0.055014476 -0.16420835 -0.2395302 -0.44612414
0.16800229 -0.17682032 -0.08720125 -0.16457088 -0.053032912 -0.27869114 -0.19136284 0.20123643
-0.15219313 0.22424582 -0.120863244 -0.18762667 0.00897971 -0.08355373 -0.106335476 -0.44127876

net.0.bias f4 [256]
00000000: 4d9d 7e3e 5df4 953d c3c0 07bd 1ab3 383e
00000010: e365 1d3e dfab a0be 4d0d 56be b99a d738
00000020: 6e8c 283e a889 4c3e dc4e 3bbe 0f04 a8be
00000030: 4f1f f3bc 0991 eebc 15ff ea3d e556 00be
00000040: 1084 8e3e cc63 cf3c 3990 7f3e 6c75 82be
00000050: 460e 483e 52ba 853d 8088 25be a30a 303e
00000060: 1739 98be cc15 923e c04e a43d 4b24 1c3d
00000070: 263b 383e 35b2 903c 5e9f 5d3e ec94 663e
00000080: 1857 83be f051 5c3e 8847 70bd 91bf 40bd
00000090: e8bb e63d 5a10 9e3e c796 47be 27af 6dbe
000000a0: 4022 5a3e f906 3bbe 24df c13d a264 dcbd
000000b0: cef7 0b3e 2778 a43e 1b36 46be be3e 14be
000000c0: f32a 393e e19b 123d e192 91bd f278 9bbe
000000d0: c47b b93e aff7 8e3c 9763 5ebc e49f a3bd
000000e0: 576a 34bd d21f 0f3e e2ad e63c 39ba a73e
000000f0: b1b6 5b3c 050f adbc 9710 583e d669 41bd
00000100: cfd5 40bd 67d0 173e 8c75 a33e 58f6 3e3e
00000110: 6cd7 8f3e fd85 a03e 9a85 ee3d 7cc0 183e
00000120: 59f0 1b3e e56f de3d f509 923e 878c cb3e
00000130: 3b5f ea3d 000f a6bb 6c68 a53e 5fda 7fbe
00000140: f714 943e 7407 823e 73e6 9c3e e204 1539
00000150: d5a3 7cbe d8e0 993e 7bd0 1ebe 1e8d bc3c
00000160: 17aa 673e 7631 b0be 62b7 8b3c 9831 05be
00000170: 6361 873e 826a 87be b3b4 453e 108c 5c3e
00000180: 9e32 523e d3f4 b43e 74bd 923d 99ae 8fbe
00000190: d3e6 973e 15c3 8f3d 2f34 97b9 d605 abbe
000001a0: 2f67 a83c a2b7 31be 51f7 cf3e 9036 753e
000001b0: 9595 853e 4994 723e 6c90 4bbe b390 45be
000001c0: f7d3 c5bd a0aa c2bd 605f 513e 637f 6f3e
000001d0: 40c3 6f3e 110c 2dbc 4b30 81be 07e0 88bd
000001e0: 4dbc 9f3e e628 663e ef43 ea3d 1197 593d
000001f0: c2ff b1be 4a70 47be 1a61 933e e5b3 19be
00000200: 2bf1 263e 1e5b be3d d6f9 05be 7cbb 6b3e
00000210: 1c3d 60bd ad27 573d c206 f7bd 212f 9fbe
00000220: 8ca5 893d f9e5 323e 73e4 00be 78d0 5b3e
00000230: 0daf 97be 85d9 b4be 903b 87be ddce afbd
00000240: 9c65 183d 4510 afbd 13d0 633e 77d3 a6be
00000250: 8fef 0d3e e59c fd3c ae1b cc3d 40d5 a83e
00000260: 2a02 683e 1f67 46be ef3e 5fbe c9e2 89bd
00000270: 58f3 d6bd 6469 153e 4d28 263d f61b d33e
00000280: 23c4 0b3e 27a9 52bc e86c ea3c 13db dc3d
00000290: 812a 84bd 023e a43e 5af6 4bbe 3f8e 163e
000002a0: ea22 63be afb8 aabe 0e83 68bd 6dc6 653e
000002b0: cc03 653e a4c1 e13d ecc5 18bd c5e8 2a3b
000002c0: 74e1 0fbe d4b1 22bb 8af7 863c c481 c73e
000002d0: 4eda 6f3e ed24 79be d6d1 14bd 1d16 7ebe
000002e0: ed07 20bd a4fd 85be 32ab a03d 49a9 8cbe
000002f0: 22e0 c83e 2f31 8a3e ff67 48be 00c6 b9be
00000300: 5fcf c13d aa0c b6bd 340c c53c e4dd 6abe
00000310: b55e 2e3e 5321 61be 9447 28be 515d 1cbe
00000320: 9a99 713e 65ae 6fbc 75a8 a5be 2bbf 25be
00000330: 8d2c 1bbe d489 c5be a193 b53d 75af 463e
00000340: 9ee7 3c3c cb20 33be 0c46 abbc 5cfe 54be
00000350: 77ed 58be 6fe7 103d b34a 963e 3b40 f9bd
00000360: 6bce 4d3e 0da1 d7bd abf2 60bd cdcf b2be
00000370: bebb bd3e 1055 a73e 9534 da3c 0c99 3f3e
00000380: 8e69 8d3e f80a 583e cfeb 613e 2818 96be
00000390: a32c a5be c531 78be 57a8 993d efa2 93be
000003a0: 40a6 8bbe a92a 27be cf7a 99be dfe2 54bc
000003b0: 5735 623d b6e6 6dbe f18e 993e 7f0c e5bd
000003c0: 1c0a 94bd 3787 943e e581 af3e de38 2bbd
000003d0: 9319 46be 6edf f9bd 9b3f 1f3c 3e62 723e
000003e0: 5a70 6a3e b267 1cbe 32ca a3be 6dcc a7be
000003f0: a6b9 bcbd 2bbd 133d 144f 0abe 68bf 8ebe
0.24864693 0.07321999 -0.033142816 0.18037072 0.15370898 -0.31381127 -0.20903511 0.00010280818
0.1645982 0.19974387 -0.18291801 -0.32815596 -0.029678015 -0.029121893 0.11474434 -0.12533148
0.2783513 0.025316142 0.2495736 -0.2548021 0.19536695 0.065296784 -0.16165352 0.17191558
-0.29731056 0.28532255 0.08022833 0.03812055 0.17991313 0.0176631 0.21642825 0.22517747
-0.25652385 0.21515632 -0.058661968 -0.047057692 0.11266309 0.3087185 -0.1949111 -0.23211347
0.21302128 -0.18264379 0.09466389 -0.10761382 0.13668749 0.3212292 -0.19356577 -0.14477059
0.1808279 0.03579319 -0.07108093 -0.3036571 0.36227238 0.01745209 -0.013573549 -0.07989481
-0.044046726 0.13976982 0.028159086 0.32759264 0.013410256 -0.021125326 0.21100079 -0.047220074
-0.047078904 0.14825593 0.3192562 0.1864866 0.2809404 0.31352225 0.11646576 0.14917177
0.15228404 0.10861186 0.28523222 0.3975565 0.11443945 -0.005067706 0.3230623 -0.24985646
0.28922245 0.2539631 0.3064457 0.00014211566 -0.24671872 0.30054355 -0.15509216 0.023016509
0.22623478 -0.34412736 0.017055217 -0.130072 0.26441488 -0.26448447 0.19307213 0.21537805
0.20527121 0.35343036 0.071650416 -0.28062895 0.29668292 0.07019631 -0.00028839844 -0.3340289
0.020557014 -0.17355207 0.40618375 0.23946595 0.26090685 0.23689379 -0.19879311 -0.1929348
-0.0965957 -0.095052004 0.20446539 0.23388438 0.23414326 -0.010561959 -0.25232157 -0.06683355
0.3119835 0.22476539 0.114387386 0.053122584 -0.3476544 -0.19476429 0.2878502 -0.1501003
0.16302936 0.09294723 -0.13083586 0.23020738 -0.05474578 0.052528072 -0.12061836 -0.31090644
0.06721029 0.1747054 -0.12587146 0.21466243 -0.2962574 -0.35322204 -0.2641263 -0.08584378
0.037206277 -0.08548025 0.22247343 -0.3258321 0.13860916 0.030958602 0.09966217 0.32975197
0.22657076 -0.19375275 -0.21801351 -0.06732709 -0.10495633 0.14590985 0.040565778 0.4123227
0.13649039 -0.012857712 0.028616384 0.107839726 -0.064534195 0.32078558 -0.19918194 0.147027
-0.22181287 -0.33344027 -0.05676561 0.22438975 0.2236473 0.11023262 -0.037298128 0.0026078683
-0.14050847 -0.0024825232 0.016475458 0.3896619 0.2342312 -0.24330492 -0.036332928 -0.24813123
-0.03907006 -0.26170075 0.07845153 -0.27472904 0.392335 0.2699065 -0.19570921 -0.36283875
0.09463381 -0.08889134 0.02405367 -0.22936207 0.17028315 -0.21985368 -0.16433555 -0.15269972
0.2359375 -0.014628981 -0.32355085 -0.16186206 -0.15153714 -0.38581717 0.088660486 0.19402869
0.011529831 -0.17492978 -0.020907424 -0.20800155 -0.21184336 0.035376962 0.29353866 -0.12170454
0.20098273 -0.10528765 -0.054918926 -0.34924164 0.37057298 0.32682085 0.026636401 0.18710726
0.27619594 0.21097934 0.2206261 -0.29315305 -0.32260618 -0.24237736 0.075028114 -0.28835246
-0.27275276 -0.16324867 -0.29976508 -0.012993543 0.05522665 -0.2323254 0.29991868 -0.11184024
-0.07228491 0.2900941 0.3427879 -0.04180228 -0.19345693 -0.12200819 0.009719755 0.23670289
0.22894421 -0.15273932 -0.319902 -0.32773152 -0.09215097 0.036069077 -0.13506728 -0.27880406

net.3.weight f4 [256, 256]
00000000: 52e6 423c 0940 04bd 9377 20bd 63c7 52bd
00000010: 59c6 283c 4534 763d 3a6f 0a3d 1892 733b
00000020: 6dba 133c 9a3e ca3c 600c 49bd dda1 cdbd
00000030: f052 a8bc 32ad 0abd c9f2 ecbb 3ff2 92bd
00000040: 532a 8d3c a2b8 53bd 253b b13d 5eab 233d
00000050: ad77 243d 8ae7 95bb bc1d 8fbd 77b5 843d
00000060: 5ee9 5b3d 6f6b 14bd 73b6 8cbc 40c4 71bc
00000070: c8d9 48bd c27a 0f3c 7800 403d 3141 a5bd
00000080: c396 a43c 60b3 133d d089 83bc 37fd 8fbb
00000090: f41e 913d f58c a2bd 811b 69bc 633a 97bd
000000a0: 313c 9d3c 37b1 d73c 52db dcbd dbae 99bd
000000b0: 0610 afbb 21ac a9bd f595 21bd 7f52 c63b
000000c0: 8092 d43c 2c71 a23d 2155 07bd dfc8 3bbd
000000d0: 230b 593d 3f99 603d c0f9 a13c 571a 293d
000000e0: cc55 ee3b 0a04 e8bd cd35 8f3c 9de2 11bc
000000f0: dc29 803d f55e da3d ceaa 993c b541 8c3d
00000100: d919 a8bc e200 9a3d 6339 3e3d 9043 0abc
00000110: 3e57 31bd 2f37 bcbb 2ae4 813c 6ded 27bd
00000120: 43fa 26bd 2683 ae3c 6e77 2cbb 4787 29bc
00000130: fefc 2639 f84a ebbc 9f25 8abd 8726 b7bc
00000140: a30d 723b be98 a63c 2502 453d a87e 16bd
00000150: 9c6c df3c c877 c7bc 3efe d9bd 27ac e4bb
00000160: fddd 30bd c615 f8bc 7f87 05be 0ecf ddbd
00000170: 0edd b63c d84a cfbc 482f 00bd 6fbf c0bd
00000180: e011 92bd 4651 cebc f0aa 73bd c149 ab3c
00000190: 815c dd3c 1251 cfbc 127e 86bb 7231 3fbd
000001a0: 01c9 b5bd 6ff2 053c af66 89bc d04c a33c
000001b0: 2510 413d f50e c4bc 4956 81bd ef6b 8fbb
000001c0: 358e b4bd d183 8c3d 6fd7 ea3b 30ea 313d
000001d0: 6213 e7bc fd94 88bd dcb7 18bd 822e 213d
000001e0: 100a 42bc 76c8 7d3d 981c debc f0bb a63b
000001f0: 1262 56bc 0e15 75bc 139d 12bc 07ad a2bd
00000200: 297a efbc c08c 3e3d 234b 14bc ac4f 033d
00000210: 12b2 0eba 64d5 263c 7f1f 30bc ab69 f4bc
00000220: 1395 6dbd 66c5 49bc 0bc9 90bd bc92 89bd
00000230: fe3f bd3b 02d8 a53a ca93 07bd abde 2a3d
00000240: 0dcd 683c 09b0 00bc f0cd dcbc 3821 563d
00000250: a7ec 073d e5a8 cb3b 61f0 b9bc a022 92bc
00000260: 552b 873d 8c10 483d 6826 9dbc 02ee c3bd
00000270: 181a 343d 2442 9fbd 6aff 873d 82e5 5f3d
00000280: c797 8dbd 0f29 1dbd ae5a 903c 4887 82bd
00000290: 8d57 a33d 014c 73bd fdc4 9bbd 4451 40bd
000002a0: abf3 3dbd fcf5 b83c f181 babd 3a7f 50bd
000002b0: 3eb6 443d e648 0b3d 5604 0a3d 2bf8 65bd
000002c0: d391 96bc e9ec dcbd 0243 0a3d e334 a1bc
000002d0: d9dd fabb 5fd7 debd b565 0ebd 44b3 c2bb
000002e0: 5b31 8cbc 72a6 6e3d a4f5 58bd ca89 843c
000002f0: e38b 8a3c 4e38 11bc 2a7a 0dbc 192f 3d3c
00000300: 2096 023d 5fda 1a3d 638a b53d 83b7 8f39
00000310: d716 8e3d e586 87bd 988e 80bd c812 0fbd
00000320: d4d6 e3bd 22c2 49bc 95a7 c9bd b041 df3c
00000330: face 1d3d 5dc4 dfbc 35d2 30bd 5cf8 733d
00000340: 90f8 86bc b935 173d 8764 2e3d 6114 dfbd
00000350: 4f1a 7dbc 903d 713c 8c66 383d 78cd e3bb
00000360: 9d83 363d d171 25bd dbcb 43bd f6f6 923d
00000370: 2a3b 02bb 6dbd 993d e181 ebb9 d572 88bc
00000380: eb6a a63d 0afa 233d abb0 653b 554d 7bbd
00000390: 4120 a63c 5642 aebd 2006 cb3c acd8 a13b
000003a0: a5c0 6c3c 1694 29bd c475 6e3d b995 3abd
000003b0: 13ea 6c3d 528c b03d 9279 febc 67d2 4f3d
000003c0: 2bd0 2dbd cbf4 89ba 8013 31bd 6d1c 003c
000003d0: 1dd9 7ebc 4b17 2e3d a36c 8b3d 3325 80bd
000003e0: cc51 7b3d 4783 2fbc 2ad2 b43c bfeb a5bd
000003f0: 4733 8c3a 0854 0a3d 80f5 1e3d 025e 4cbc
0.011895733 -0.03228763 -0.039176535 -0.05145968 0.010301196 0.06010844 0.03379748 0.0037165936
0.009016615 0.024688054 -0.049084067 -0.100406386 -0.02054736 -0.03385658 -0.0072310907 -0.07175111
0.017232096 -0.05168975 0.08653859 0.03995835 0.040153194 -0.0045747207 -0.06988093 0.06479924
0.053689353 -0.03623527 -0.017176842 -0.014756262 -0.049035817 0.008757295 0.046875447 -0.08069075
0.02009142 0.036059737 -0.016056925 -0.0043941992 0.07085982 -0.07937042 -0.014227749 -0.07384183
0.01919374 0.02632962 -0.107840195 -0.07504054 -0.0053424863 -0.08284784 -0.03944965 0.006052315
0.025948763 0.07931742 -0.03304017 -0.045845862 0.052989136 0.054833647 0.01977241 0.041284885
0.0072734114 -0.113288954 0.017481709 -0.0089041265 0.06257984 0.10662643 0.018758204 0.0684847
-0.020520138 0.075197 0.046441447 -0.00843896 -0.04329609 -0.005743883 0.015855867 -0.04099791
-0.040766012 0.02130277 -0.0026316303 -0.010347194 0.0001592524 -0.028722271 -0.06745457 -0.022357238
0.0036934398 0.020336505 0.04809775 -0.036741883 0.027273469 -0.024349108 -0.10644196 -0.00697853
-0.043180455 -0.03028382 -0.13039969 -0.10830508 0.022322204 -0.025304243 -0.03129509 -0.09411513
-0.07132316 -0.025185239 -0.05948919 0.020909192 0.027021648 -0.025307212 -0.004104384 -0.046678014
-0.08876229 0.008175476 -0.016772596 0.019934088 0.047134537 -0.023932913 -0.06315286 -0.0043768804
-0.08816186 0.068610795 0.007166795 0.04343623 -0.028207485 -0.06669042 -0.037284717 0.039350994
-0.011843219 0.061958753 -0.027113244 0.005088322 -0.013084905 -0.014958633 -0.008948582 -0.079431586
-0.029233055 0.04652095 -0.009051117 0.032058403 -0.00054434047 0.010182712 -0.010749697 -0.029835543
-0.058003496 -0.01231513 -0.07069596 -0.067174405 0.0057754507 0.0012652876 -0.033099927 0.04171626
0.014209044 -0.00785447 -0.026953667 0.052277774 0.033184674 0.006215202 -0.02269763 -0.017838776
0.06600062 0.048843905 -0.019183353 -0.09566881 0.043970197 -0.07776287 0.06640513 0.054662235
-0.06913715 -0.038369235 0.017621364 -0.06373459 0.07975683 -0.059398655 -0.07605932 -0.0469525
-0.046374958 0.022578232 -0.091068156 -0.050902583 0.048025362 0.03400507 0.03369554 -0.056144875
-0.018380081 -0.107873745 0.03375531 -0.019678539 -0.007655841 -0.108809225 -0.034764964 -0.0059417803
-0.017113378 0.058264203 -0.052968636 0.016178984 0.016912406 -0.008863522 -0.008635083 0.0115468735
0.03188145 0.03780591 0.08864286 0.00027411812 0.0693795 -0.06617526 -0.062771976 -0.03493002
-0.111249596 -0.012314351 -0.09846417 0.027253002 0.038527466 -0.027315313 -0.04316922 0.059563026
-0.016475946 0.03691647 0.04257634 -0.10892559 -0.015448167 0.01472415 0.04501967 -0.006951984
0.04455911 -0.040391747 -0.047801834 0.0717601 -0.001987169 0.07506833 -0.0004491946 -0.016656319
0.08125862 0.040033378 0.003504793 -0.061353046 0.020279052 -0.08508746 0.024783194 0.0049391594
0.014450227 -0.04140099 0.05821778 -0.045552943 0.057840418 0.08620514 -0.031063829 0.050737765
-0.042434853 -0.0010525224 -0.043231487 0.007819277 -0.0155546935 0.042502683 0.0680783 -0.06257095
0.061357304 -0.010712451 0.02207287 -0.081016056 0.0010696434 0.033771545 0.038808346 -0.012473585

net.3.bias f4 [256]
00000000: 2076 80bc dad0 873d 1146 9b3c 4d74 c4bd
00000010: f698 583a 5ecc 8b3d 29d1 1cbe e232 adbd
00000020: bb23 dc3c 90e8 043d a265 243d f124 3dbd
00000030: 6c29 dbbc 1f75 883d 3f2f 1c3d f968 4bbd
00000040: ac6f 83bd 61a3 1cbd 67c3 213d 6112 0f3d
00000050: d1cb 6abd beaa 9d3d 6f0a 06bd 9ece b33b
00000060: e80a 04bd 2f2b 02be 31c7 33be 4384 6abd
00000070: 8139 0d3d 2908 133c 1af3 21bd 9938 84bd
00000080: 725c 523d 9ef7 86bc 3653 6b3d 9a5d 9fbd
00000090: 6e50 08bd 30af 30bc d153 02bc f38c c6bd
000000a0: d50c 183d 8527 f2bc e982 053d 42ea 5d3c
000000b0: c6fc 86bd 15a7 333d 71fa f63c 193f 18bd
000000c0: 5f6f 0c3c b628 e1bb 3ccd f13c 6e7f 7ebd
000000d0: 6fc3 333d cbff b7bc 68cf c7bc f8d7 9fbb
000000e0: 5f4f b33d 140f 9cbd 9952 2bbd 3aca 81bd
000000f0: 758e 93bb 9794 45bd 10aa da3d 0f43 483c
00000100: 0dfb 82bb 1873 a73d 808d 273d 2e98 7ebd
00000110: f688 20bd 8034 dc3c 2d10 a43b 3402 6f3d
00000120: f417 ac3a 7ed4 523c 24f4 38bb 5fe1 17be
00000130: e063 b4bd 1654 d93b a29f 093b 08ae bdbd
00000140: 2b69 a23d f73e 903d 8618 89bc e434 803d
00000150: c6e1 653d 0072 12bd 2669 1f3d 7403 7cbb
00000160: 4a16 92bd 9b06 89bd 76da 943c b666 9ebc
00000170: 5097 6fbd f2be fdbc 3f69 113d 2141 383c
00000180: c31e 4bbd 3eb3 743d b889 fb3c 43b2 03bc
00000190: 3725 353d 1e1c febc 01ea f3bb 7ae1 a33d
000001a0: 2f5c abbc 19fa 0ebc b1fb b43c 75de 98bd
000001b0: 5502 543d 0ef2 1fbe cb85 ec3b 5448 2b3d
000001c0: a5c9 223d d77d 0f3c 81e8 48bc 29cd a53d
000001d0: 1b99 cebd 37de cd3c fb81 a0bd 7d11 10bd
000001e0: 0c9c ccbc 81d7 9cbc 218d 29be 8f28 763d
000001f0: f94a 0a3d d128 ed3b 7004 173d ff03 9a3c
00000200: 359f f43c bd11 c83d 8a41 9d3c 7817 8ebc
00000210: bd46 c8bb 5901 893d 847b 87ba deb2 533d
00000220: f1d9 0dbd 7e86 f5bc e6c7 ae3a 6d41 32bd
00000230: 8f9f 13be 57c1 a13c f870 903c bc71 52bd
00000240: cf3e 98bd ea1f 41bd 2642 2c3d 3c08 683c
00000250: 9e7a 8cbc 5cda aabd 1272 ee3a f58a 1bbd
00000260: ab29 98bd 4c11 003c 4088 133c e304 50bd
00000270: fecb a63d 49b2 2b3d 3345 173a e8c8 713b
00000280: 6a58 37bc aa51 123c 9857 17bc 7676 293d
00000290: e992 97bc 78be 893d ee55 19bd ae17 f3bd
000002a0: d2d6 83bc 34d7 efbd 1ccf 35ba b3ed faba
000002b0: b4e0 393a 2004 b7bc a87e dc3c dc4d 9ebc
000002c0: 8f2c 3e3d 4d5b fbbc 2555 053d b964 f1bc
000002d0: 3a3c 383d f5b2 85bb 0ec1 adbd c963 a4bd
000002e0: 28fd 6bbb 50e4 253d ffbf 40bd f7cb 92bd
000002f0: 3bbd abbc bfb8 95bc fc86 143d ba06 0f3d
00000300: f59c 29bd 124b 97bd 7b02 d0bb 0958 ad3d
00000310: d9f9 0bbd 3cbc a7bd 0079 9f3d 4ae6 70bd
00000320: 7273 2a3d 03ba 6bbc 9074 87bd cec7 5e3d
00000330: f6ad 613d f964 2f3d 7705 86bd 85ed 873d
00000340: 65f9 b5bd 49c0 b6bd d502 533c c023 f2bd
00000350: 8297 c23c 1db6 d63c 51b5 c1bd 517b 06bd
00000360: 9209 6c3c 2e93 87bd 430b 7dbd 4bfc 233d
00000370: f549 2cbd bee2 bebd 22bd d8bc e54a 893c
00000380: f07b f4bc 6b01 e7bc d643 f3bc 5668 64bb
00000390: 312c 383d a334 febc c5ad 86bd caf5 4b3c
000003a0: 918a 173d 4ecf c1bd cbcf f8bc 7f5e b0bc
000003b0: 403c ddbc 3622 46bd 1f78 3b3d 0666 b33c
000003c0: 4ed9 91bc c1a4 763c 9338 87ba b2ad 2f3d
000003d0: db20 6e3d 7519 2a3d 3aa0 953c 9637 9abd
000003e0: 4804 4f3d e1e5 15bd 8110 8ebd a086 ce3a
000003f0: eb1d 8bbd a859 0cbe 3004 4b3d 4b5e 3e3d
-0.015681326 0.06631632 0.018954309 -0.09592495 0.0008262539 0.06826089 -0.15314163 -0.08456971
0.026872506 0.03244835 0.040135987 -0.04617781 -0.02675315 0.06662964 0.038130995 -0.049660657
-0.06417784 -0.038241748 0.03949299 0.034929637 -0.05732328 0.07698582 -0.032724794 0.005487277
-0.032236964 -0.12711786 -0.17556454 -0.05725504 0.034478668 0.0089741135 -0.03953848 -0.06456108
0.051357694 -0.016475495 0.057452403 -0.07781525 -0.03327983 -0.010783955 -0.007954554 -0.09694853
0.037121613 -0.02955986 0.03259555 0.013544621 -0.065911815 0.043860514 0.030148717 -0.03716955
0.008571475 -0.006871308 0.029516809 -0.062133245 0.043887552 -0.022460839 -0.024390891 -0.0048780404
0.08755373 -0.076200634 -0.04182682 -0.063374 -0.004503066 -0.04823741 0.10676968 0.012223019
-0.0039972127 0.08176249 0.04090643 -0.06215685 -0.039193116 0.026880503 0.005006811 0.05835171
0.0013129697 0.012868045 -0.002822169 -0.14832066 -0.08808112 0.0066323383 0.002099969 -0.092617095
0.079302154 0.070432596 -0.016735326 0.06260088 0.056123517 -0.03575325 0.038918637 -0.0038454207
-0.071331576 -0.06690713 0.018170577 -0.019336086 -0.058493912 -0.030974839 0.03550076 0.011245997
-0.049589884 0.05974125 0.030705318 -0.008038106 0.044224944 -0.031019267 -0.007443667 0.080019906
-0.02091798 -0.00872662 0.022092672 -0.07464305 0.051760036 -0.1561968 0.007218098 0.041817024
0.039743084 0.00875803 -0.0122624645 0.08095772 -0.10087796 0.025130374 -0.07837292 -0.035172928
-0.024976753 -0.019145729 -0.16557743 0.060097273 0.033762906 0.0072375317 0.036869466 0.018800734
0.029861072 0.09769008 0.01919629 -0.017345175 -0.0061119483 0.0668971 -0.0010336493 0.051684253
-0.034631673 -0.029971357 0.0013334721 -0.043519426 -0.14416336 0.019745512 0.017631993 -0.051377997
-0.07433855 -0.047149576 0.04205527 0.0141621195 -0.017148312 -0.0834243 0.0018191955 -0.037974317
-0.074298225 0.007816624 0.0090046525 -0.05078591 0.08144377 0.041918073 0.00057705044 0.003689343
-0.011190513 0.008930603 -0.009237193 0.04137274 -0.01850267 0.06725782 -0.037435465 -0.11869751
-0.016093645 -0.117109686 -0.0006935464 -0.0019144326 0.00070906733 -0.022340834 0.026915863 -0.019324236
0.046429213 -0.030683184 0.032551903 -0.029466974 0.04497931 -0.004080171 -0.08484088 -0.08026845
-0.0036009047 0.04050094 -0.0470581 -0.071678095 -0.020964256 -0.01827657 0.036261544 0.034918524
-0.04140945 -0.073873654 -0.006347952 0.08464057 -0.03417382 -0.081902 0.07786751 -0.05881337
0.041614003 -0.01438761 -0.066140294 0.054389767 0.055097543 0.042820904 -0.06544011 0.066371
-0.08885459 -0.08923394 0.012879093 -0.11823225 0.023753885 0.026209885 -0.094584115 -0.032832447
0.014406579 -0.06619869 -0.061778318 0.040035527 -0.04206272 -0.093205914 -0.026457373 0.016759345
-0.029844254 -0.028198918 -0.029695433 -0.0034852228 0.04496402 -0.031030959 -0.06576113 0.012448737
0.03699738 -0.09463368 -0.03037252 -0.021529434 -0.027006269 -0.04837247 0.045768853 0.021899235
-0.017803814 0.015053929 -0.0010316543 0.042890258 0.058136802 0.041528184 0.018264879 -0.075301334
0.050541192 -0.036596183 -0.069367416 0.0015756674 -0.06792816 -0.13706076 0.04956454 0.046476644

net.6.weight f4 [66, 256]
00000000: d4d2 bfbc 3b6a 4bbc 6cac cdbd 3389 aebd
00000010: b344 ec3c 65b1 703d 7eb5 e2bb 21e3 05bc
00000020: 7f5b 0abd a2eb 1cbd 0bf1 d1bd 7efe efbd
00000030: 1431 46bb 681c 94bb bf43 e7bc 240d 083d
00000040: 8f13 753d c334 87bd f6ff 58bc a5e4 533c
00000050: 7ee6 b23c 5ec2 153d cc35 1ebe e0ed b93c
00000060: 6215 01bd 1175 a8bc e7c3 083d 46a6 173d
00000070: 0302 3c3d 7a34 17bc 8a3c b7bd 9fdb babc
00000080: 2cd9 62bd 627e 243d 058c 8b3b 1f36 493c
00000090: 8934 053d 7e0a 3b3c 9c32 c43c bb8e 9dbc
000000a0: 49fb 2a3d 4fac 02bd 2e9c 3ebc c976 b73b
000000b0: e2c9 0ebc f56d ed3c 6319 a83c ad31 90bb
000000c0: a4aa 26bd 72e2 0e3d 6620 fc3c 35a6 f7bc
000000d0: df59 18bc d084 f6bc 5ea7 313c b9ae 2bbc
000000e0: 0a34 103d 6b0c 9bbc 82e9 bdbd 047b 0d3d
000000f0: 80f9 2ebd b326 6f3c 67bb 203c ce28 5d3b
00000100: 9f01 bbbc cd1e 493d c69c 2c3c 9c75 2c3c
00000110: 6231 47bd a5d3 0abd 7baa 973c ad26 dc3a
00000120: 2b9b dd3c ea64 b13a e28c e23b 870a 30bd
00000130: ef64 173c dffb 143d 5488 a63c 88bd 64bd
00000140: 2f12 a039 c65e 2a3c 10f7 363d 116a 0dbd
00000150: 873e 89bc 46a4 063d ff81 2cbd 10d7 c3bb
00000160: 0dfd 78ba e05b 0ebc 78e1 7cbc 56a3 dfbd
00000170: 1274 0b3b 88e7 c33b 52fe 43bd 0e1f 8f3c
00000180: 77a1 39bd 5779 11bd b2df 0dbc 33ee 63bd
00000190: 8520 9abd 3586 a23c 39c3 e73a 6c58 fb3b
000001a0: 3d20 0abd 7f51 253c b349 0c3d a2a0 ac3b
000001b0: f6d0 a1bd 03b2 113d f98c 91bd 8f07 51bd
000001c0: b585 653d 57cf 4fbc b0f1 2fbb 9006 973d
000001d0: fa13 393d 2402 a73b d45c 3dbd fdad 2bbe
000001e0: 2e1f 69bc a8c2 cdbb 8a99 2d3a e57a 7ebc
000001f0: 13b0 293b fb7b 253d 4351 99bd 993f 133c
00000200: 38e9 58bc 0fa9 253d e236 67bc b68d e8ba
00000210: 56fc 763d 0c3e cd3c a7e9 aabc fcea 973d
00000220: 47ea 18bd 0f2d c6bd 6133 063d 8c14 11bc
00000230: 9697 f73b 5395 a93c 0941 94bd 409f 83bd
00000240: f06b 8fbd e4b5 d3bb 05cb 4239 5ef8 52bd
00000250: eb7e 433c 18f5 f63b c6da 4abd e9c4 abbc
00000260: 584f 523d b700 ee3c f2e8 e23d f8ab 373d
00000270: b2b5 203d 26df 8e3d 2f60 3a3d 82d7 bc3c
00000280: f539 3c3c 0e9f 3b3d 4ef7 33bd 2d45 78bc
00000290: 60ed f63b 576c 4fbd 0651 05bd fa3c cc3b
000002a0: df03 393d fc42 133d 9118 e13c 2771 f9bc
000002b0: 94ee 4bbd fa55 48bd 3839 053d aae6 8d3c
000002c0: 0126 753d 6a59 1b3b 9ab1 abba 98d1 d53c
000002d0: 2ab4 efbc 031e d5bd 602b 21be 15d6 b7bb
000002e0: e3cb d73c 3ebb 3bbd 03b7 37bd 0e81 2c3d
000002f0: bfe1 7fbb fbd2 f1bd 4add d0ba f6a0 20bd
00000300: 2420 723c 4ef5 8c3c 937b 46bc 0031 9cbb
00000310: d15e 3b3d 1d78 0ebe 8bd1 593d a5cd 023d
00000320: 33dd 42bc 4d2f f03b a481 aebc 9d4d 723d
00000330: cff1 7fbd 17b0 d3bc db1e 0cbe be5f 7f3d
00000340: f0fc f93a b069 573b 661c dbbc d4ca c139
00000350: e611 9e3c a39d 02bd eb04 c23c 3fd0 00be
00000360: d2e5 57bb 37b0 b9bb 6922 2cbd 9b27 20bd
00000370: 1805 13be 77d3 7cbd 7028 613d b69c 653b
00000380: 5853 bfbb 1442 fd3a 8a47 12bd 0d4c a2bd
00000390: 4b71 57ba 4313 b9bc e6d5 4a3c c6ee fdbd
000003a0: ee67 473d 5e59 00bd 7754 bdbc 84d6 313c
000003b0: e8b0 b93c b77f 74bd a49b 253d 8e83 cc3b
000003c0: 6c69 f4bc 20cb 20bd b545 f73c 3cf8 d7bd
000003d0: 8f03 5cbd 6e86 5d3d 520e f93b 6d6d f7bb
000003e0: 89cf 093b 578c 29bd c340 5bbd 73a0 593d
000003f0: 935d 673b ebac 0abd d7d1 4dbc 3e34 613c
-0.02341596 -0.012415464 -0.100426525 -0.085222624 0.028841352 0.058762927 -0.006918608 -0.0081718275
-0.033778664 -0.038310654 -0.102510534 -0.117184624 -0.0030241655 -0.004519988 -0.028230546 0.033215657
0.059833106 -0.066018604 -0.01324462 0.012932931 0.021838423 0.036562316 -0.1545021 0.022696435
-0.031514533 -0.020563634 0.033389952 0.037023805 0.045900356 -0.00922882 -0.08947094 -0.022809802
-0.055382892 0.04015959 0.004258635 0.01228097 0.032520805 0.011416076 0.023949914 -0.019233098
0.04174355 -0.031902608 -0.011633916 0.005598877 -0.008715125 0.028983096 0.020519918 -0.004400453
-0.04069008 0.034883924 0.030777168 -0.03023062 -0.009298771 -0.030092627 0.010843126 -0.010478669
0.03520588 -0.01892682 -0.09273054 0.034541145 -0.04271841 0.014596629 0.009810305 0.0033746245
-0.022827921 0.04910164 0.010535425 0.010526087 -0.04863108 -0.033893246 0.018513909 0.0016796194
0.027051529 0.0013534103 0.006913767 -0.04297879 0.009240373 0.036373015 0.020328678 -0.055844814
0.00030531126 0.010398572 0.04466921 -0.03452498 -0.016753448 0.032871507 -0.04211616 -0.005976565
-0.0009498157 -0.008688897 -0.015434615 -0.10919826 0.00212789 0.0059785284 -0.04784996 0.017470863
-0.04532 -0.03551611 -0.00865929 -0.055647086 -0.07525734 0.019839386 0.0017682082 0.007670453
-0.03372215 0.010090231 0.034249973 0.0052681724 -0.07901184 0.035570156 -0.071069665 -0.0510326
0.056035716 -0.012683711 -0.0026846938 0.073742986 0.045185067 0.0050966907 -0.046231106 -0.1676559
-0.014228625 -0.0062793083 0.00066223054 -0.01553223 0.0025892302 0.04040144 -0.074862026 0.008987331
-0.013239197 0.04044443 -0.014112206 -0.0017742428 0.06029924 0.025054 -0.020863367 0.074178666
-0.0373328 -0.09676563 0.032763842 -0.008854996 0.0075559122 0.020701086 -0.07238967 -0.06426859
-0.07003009 -0.006460892 0.00018576912 -0.051506393 0.011932115 0.0075365417 -0.049525045 -0.020967918
0.0513452 0.029053075 0.11079587 0.044841737 0.03923578 0.06976156 0.045501884 0.02305198
0.011488427 0.045805983 -0.04393702 -0.015153212 0.0075356215 -0.05064043 -0.032547973 0.006232855
0.045169707 0.035952553 0.027477534 -0.030449463 -0.049788073 -0.04891012 0.03252527 0.017321903
0.059850696 0.0023704418 -0.0013099194 0.026100919 -0.029260714 -0.10406115 -0.15739202 -0.0056102374
0.026342338 -0.045832865 -0.044852268 0.042115264 -0.0039044467 -0.118078195 -0.001593509 -0.039216004
0.014778171 0.017206814 -0.012114423 -0.0047665834 0.04574472 -0.13913007 0.05317835 0.0319344
-0.011893558 0.0073298574 -0.021302052 0.05915605 -0.062486466 -0.025840802 -0.13683645 0.062347166
0.0019072574 0.003286939 -0.02674694 0.00036962947 0.019295644 -0.031888615 0.023683986 -0.1257944
-0.003294338 -0.0056667584 -0.042025004 -0.03910027 -0.14357412 -0.061725106 0.054970205 0.0035036034
-0.005838793 0.0019322061 -0.035712756 -0.07924662 -0.0008218481 -0.022592193 0.012380099 -0.12399058
0.0486831 -0.031335227 -0.023111565 0.010854367 0.022667363 -0.05969211 0.040431634 0.0062412685
-0.029835425 -0.039256215 0.030184606 -0.10545394 -0.05371433 0.05408328 0.007600584 -0.0075508864
0.0021028242 -0.041393604 -0.05352856 0.053131532 0.0035303577 -0.033856314 -0.012562237 0.013745366

net.6.bias f4 [66]
00000000: cb54 963d eb94 b73d cb00 843d c772 623d
00000010: 99a6 9e3c 4c4f 4b3c 40a9 a83b 28de 073d
00000020: cd25 f53c 3d7c 033d 3c72 9fbb dbdb a5bc
00000030: 2022 7ebd ed52 89bd 50ed 6cbd 6b19 1c3c
00000040: 1089 65bd 15ce 5fbd f6dd 92bc f10c 5cbd
00000050: 13fc 6bbd 1a47 d4bc 97c5 06bc 014b 99bc
00000060: 738a d13c 5721 783d 4ddc 3f3c 9294 493d
00000070: 39b6 283d 6edf 273d 354b eaba 2c17 e0ba
00000080: 4d8e 17bd 5596 e2bc 5eb7 f9bc c233 44bc
00000090: df7c 063c 700d 9dba c8ca 883c 20ff 9bbb
000000a0: eef8 f33b 82b3 753c 6095 5e3d 697f ee3c
000000b0: 2fdb a93d a95e bd3d ca2e fc3d d2a9 d43d
000000c0: 75c5 e83d 64cb 0a3e e951 b23d e65d 313d
000000d0: 0e2a 643d 0a77 253d ba67 53bb 5b35 f5bb
000000e0: fe4f f93b 45be 4dbd 25e6 043b 78dc 7fbd
000000f0: ec3c 8cbd b657 01bd 21a8 e1bc c4f4 79bc
00000100: ded4 1bbd a862 283c
0.07340392 0.08963951 0.06445464 0.05528524 0.01936655 0.012409043 0.0051471293 0.03317085
0.029925251 0.032100905 -0.0048659127 -0.020246437 -0.062044263 -0.0670527 -0.057843506 0.0095275445
-0.056038916 -0.054639895 -0.017928105 -0.05372328 -0.057613444 -0.02591281 -0.00822582 -0.018712522
0.025578713 0.06057867 0.011710239 0.049213953 0.041189406 0.040984564 -0.0017875197 -0.001709675
-0.037000943 -0.027659575 -0.030482944 -0.011975231 0.0082084825 -0.0011982154 0.016698256 -0.004760638
0.007445446 0.014996411 0.054341674 0.029113488 0.08293759 0.092465706 0.12313612 0.10383953
0.11365787 0.1355415 0.08707029 0.04330244 0.05570417 0.040396728 -0.003225787 -0.007483167
0.0076084128 -0.050230283 0.0020278778 -0.062466115 -0.068475574 -0.03157779 -0.02754599 -0.015256111
-0.038044803 0.010277428
